btc_trading_model.pth (torch, 498906 bytes, 9 tensors)

lstm.weight_ih_l0 f4 [400, 6]
000000 f6 7a 22 3d 22 99 d1 3c a2 34 93 3c 4e 9b e8 3d
       0.039668046 0.025585715 0.017969433 0.11357747
000010 86 5f 9e bd 24 b9 b5 bb 2b e4 08 3e 00 97 de 3d
       -0.077330634 -0.005545752 0.13368289 0.10868645
000020 cc 19 2f bb b8 37 c7 bc 24 6d a6 bd 2e 61 e4 bc
       -0.0026718257 -0.024318561 -0.08126286 -0.02787837
000030 41 2a 95 3d b5 cb 89 3d c0 3a 95 3d 31 4e 92 3d
       0.0728345 0.06728307 0.07286596 0.0714382
000040 7d ce 21 be d0 ec 55 bd fc 52 fd b7 d0 bb fc 3c
       -0.15801425 -0.052227795 -3.0198593e-05 0.030851275
000050 2f 47 38 3d 70 95 35 bd 71 aa 90 3d ff d9 a7 bd
       0.04498976 -0.044331968 0.07063759 -0.08195876
000060 a9 d3 3f bd b5 fe 89 3d 66 7f c1 3c 49 6e f2 bc
       -0.046832714 0.06738035 0.023620319 -0.029593604
000070 b5 93 cd 3d b9 39 aa ba 35 ab 94 3d 1d 1d 85 3d
       0.100379385 -0.0012987173 0.07259218 0.064996935
000080 fc f0 fc 3d 0c aa 35 3d c2 92 cb bb 51 c3 60 bd
       0.123506516 0.044351622 -0.0062125633 -0.05487377
000090 c3 65 c7 3a 78 45 97 3d dd 70 22 3e 91 bd 33 3d
       0.0015212822 0.07386297 0.15863366 0.043881956
0000a0 2d 4f f1 bd fe 30 9d bc 2a ca 21 3e 4d 10 da 3d
       -0.1178268 -0.0191884 0.15799776 0.106476404
0000b0 30 52 33 3d 81 9e f7 3c 16 5a 32 bc 34 13 bb 3c
       0.043779552 0.030226948 -0.010885736 0.022836305
0000c0 22 f2 0a bd b6 a7 f8 bc 22 ef cf bd d4 ba 14 be
       -0.033922322 -0.030353408 -0.10153033 -0.14524394
0000d0 46 f9 c3 ba ca d1 2a be 05 14 b4 3d 96 dc 3f 3e
       -0.0014951609 -0.1668159 0.08792881 0.1873649
0000e0 ca 55 81 3d 83 b4 d7 3d 3d f6 38 3d 77 0b 40 3d
       0.06315191 0.10532477 0.045156706 0.046885934
0000f0 e2 12 e4 3d 83 47 00 3e 6f ad 5c 3e 56 a0 f8 3d
       0.11136414 0.1252728 0.21550535 0.12139957
000100 6f fb 70 3b ed 73 1e 3e b4 13 63 3e 95 7a ad 3d
       0.003677096 0.1547391 0.22175485 0.08470646
000110 59 da 8e 3d 68 9f 71 3d 27 77 09 bd 5c 6a fb 3d
       0.0697524 0.058989912 -0.0335609 0.12276146
000120 f8 26 2c 3e 9b 66 54 3d dd fd 3d 3d 33 02 fa 3d
       0.1681174 0.051855665 0.04638468 0.12207451
000130 07 90 c4 3d b1 68 1b 3e 53 8a 33 3c 85 5d 4a bd
       0.095977835 0.15176655 0.010958272 -0.049405593
000140 0c 99 37 3c c1 98 21 bd bf 3e 94 bd 3e 55 dd 3b
       0.011205923 -0.039452318 -0.0723853 0.0067545464
000150 8e 3c 06 3e af c6 cc 3d e7 ef 7d 3b f7 26 70 3d
       0.13109037 0.099988334 0.003874773 0.05863091
000160 df ee a9 3c 82 e7 01 3e e9 e2 cf 3d d0 f7 c8 3d
       0.020743785 0.1268597 0.101507016 0.098128915
000170 a4 15 68 3e 47 e3 f3 3d 5c 21 3e be 7d ad 93 3d
       0.22664505 0.11908584 -0.18567413 0.07210825
000180 7b b4 47 3e b7 4a c7 3c a7 bd 0a 3e 01 0a 84 3d
       0.19502442 0.024327619 0.13548909 0.064472206
000190 e8 6a d2 bd b8 bf 44 3d 50 c3 3a be ee 69 08 be
       -0.10274297 0.0480344 -0.18238568 -0.13321659
0001a0 49 2b e0 bd 87 d2 86 bd 1f 89 17 be 15 9f 6e bc
       -0.10945756 -0.06583124 -0.14798401 -0.014564295
0001b0 a6 02 9a 3d 04 9e 8d 3d e7 4b 2e 3d 0b 56 54 bd
       0.075200364 0.06914905 0.042552855 -0.05183987
0001c0 a5 cd 87 bc a8 d6 d8 3d 9f 56 2b 3e 34 b2 28 3d
       -0.016577551 0.105878174 0.16732262 0.041185573
0001d0 1d 44 e4 3d 4b a0 b3 bc de 99 a1 3d e7 86 1e 3d
       0.11145804 -0.02192702 0.07890676 0.03870287
0001e0 82 fe 91 3d b6 fd c9 bd 6d ca 61 bc 3f 9a b8 b9
       0.07128622 -0.09862845 -0.013781172 -0.00035210137
0001f0 c8 33 10 be 16 26 42 bd 66 d3 f6 bd ba 55 33 bd
       -0.14082253 -0.047399603 -0.1205204 -0.043782927
000200 13 bf 11 be cc c0 f1 bd b6 06 77 3b eb 11 0f be
       -0.14233045 -0.11804351 0.003769321 -0.13971679
000210 a8 1b 8b 3d 96 9e ba 3d 1e bf 54 3d 79 81 68 bd
       0.067923844 0.09112279 0.051940076 -0.0567641
000220 ea 40 a6 bd 5b c0 f6 bd 02 9b 44 be 66 72 f3 bd
       -0.0811785 -0.12048408 -0.19199756 -0.11887054
000230 29 6e be bd 4e e1 65 bd ce 70 7a be c1 17 3a be
       -0.09298355 -0.05612307 -0.24457094 -0.18173124
000240 a9 04 ac bd 74 f6 0e be 0a 03 62 bd 11 8b ba bd
       -0.08399326 -0.13961202 -0.05517868 -0.09108556
000250 1f 04 74 be ea ee 0f bd 3d 53 b5 3d 54 67 97 3d
       -0.23829697 -0.035139956 0.08853767 0.07392755
000260 c5 d7 29 3e c9 33 dc 3b 09 2b a3 3d ca 7e 21 3e
       0.16586216 0.0067200405 0.07967193 0.15771022
000270 b9 8b b9 3d 85 03 04 3e dc 3a b7 ba 45 a1 0e 3e
       0.09059853 0.12891968 -0.0013979333 0.13928707
000280 ae a5 d3 bd de fe 2a 3d c7 c9 fa bc d4 07 fa bb
       -0.10334335 0.041746967 -0.030613793 -0.0076303277
000290 cc 48 85 bc 0e fc 99 3d 14 81 5f 3d b4 e6 03 3e
       -0.016270064 0.07518779 0.054566458 0.12880975
0002a0 a2 fa 6e bd ea 7e e6 bc 5a 2a be 3b 94 63 94 3c
       -0.05834449 -0.02813669 0.0058033885 0.018113889
0002b0 43 92 43 bd eb 70 98 bd 18 18 11 bd 31 a9 42 bd
       -0.047746908 -0.074434124 -0.03542337 -0.047524635
0002c0 c4 6f b9 bc 2a 8f 6f 3d 0f 44 ef bc 97 1f 3d bc
       -0.022636302 0.05848614 -0.029207258 -0.011543176
0002d0 7e 52 78 3e ad aa 9e 3d 66 4e 5f 3e ea bc 10 3e
       0.24250218 0.077473976 0.2180725 0.14134565
0002e0 87 1f b4 3d 5e 04 cd 3d 37 e7 0b 3e 02 b3 40 3e
       0.08795076 0.100105986 0.1366242 0.18818286
0002f0 fd 9b 37 3e 0e f5 1d 3e 6b 8c 5b 3a fc d2 23 3d
       0.17930599 0.15425512 0.0008375111 0.039996132
000300 31 20 fc bd 52 a2 b2 bc a6 55 59 bd fa cd 35 be
       -0.123108275 -0.021805916 -0.053060196 -0.17754355
000310 83 87 ee bd db 9e 01 be e5 1f 02 bc 09 b8 86 3b
       -0.116469406 -0.12658255 -0.007942175 0.004111294
000320 b2 00 cd 3d 77 9f 22 3b 01 b9 03 be d2 7b 95 3d
       0.10009898 0.0024814287 -0.12863542 0.072990075
000330 6d 4d be 3a f2 4f cf 3b 45 7e f6 bc 1d 42 12 bd
       0.0014518924 0.006326669 -0.030089507 -0.03570758
000340 cc ea c0 bd 76 f5 ca bb 95 20 32 ba e6 cd 03 be
       -0.09419784 -0.006193812 -0.0006795016 -0.12871513
000350 cc bd c5 bd dd 29 27 3d d1 db bb 3d 4d 04 fa 3d
       -0.096553415 0.04081141 0.09172786 0.122078516
000360 02 09 30 be 6d 8c 3a be d8 f8 b9 bc 7f de 80 bd
       -0.17190936 -0.1821763 -0.022701666 -0.06292438
000370 88 fc 31 bd f9 da a8 bd a1 c1 5d bc a7 57 27 3d
       -0.043453723 -0.08244891 -0.013534934 0.040855076
000380 0d 55 e3 3d 0c c0 b3 3d 38 83 81 bb 7f ab 89 3a
       0.111002065 0.087768644 -0.00395241 0.001050338
000390 a9 b8 72 3d 86 28 4a bb 14 80 7a bb 64 dc 15 3d
       0.059258137 -0.0030846908 -0.0038223313 0.036587134
0003a0 f2 bf 69 bd 64 a1 23 be 2e 80 6a 3e 10 f0 c2 3d
       -0.05706782 -0.15979534 0.22900459 0.095184445
0003b0 87 90 4b 3e 17 de 5a 3e 62 39 86 bc fe 41 73 bc
       0.19879352 0.21373783 -0.016384784 -0.014847277
0003c0 08 f9 8d 3d 6b 13 ce 3b 97 a0 a2 3d e6 25 08 3d
       0.069322646 0.006288936 0.07940786 0.033239268
0003d0 8c 76 a4 3b 50 44 0b bd 1c 42 56 bd a5 58 0c be
       0.0050190147 -0.034000695 -0.05230914 -0.1370569
0003e0 e8 72 4b be 38 15 4c be cf 66 a1 bd e9 0f b0 bd
       -0.19868052 -0.1992997 -0.07880937 -0.085967846
0003f0 ea 4e 8b 3e 91 ac bf 3d c3 71 08 3e 56 b3 1a 3d
       0.27208644 0.09359086 0.13324647 0.037768684

lstm.weight_hh_l0 f4 [400, 100]
000000 1b 94 61 bd 42 0c e4 3a b7 83 9e 3d 43 4e 15 bd
       -0.055072885 0.0017398673 0.07739966 -0.03645159
000010 68 1f 3b 3d b8 33 6c 3d 76 3b ea bb 7c 09 11 3d
       0.04568425 0.05766651 -0.0071482016 0.035409436
000020 5e 57 f4 bd 7b ad 4e 3d 47 e2 2b 3d 15 56 3d bd
       -0.119307265 0.050458413 0.04196384 -0.046224672
000030 41 77 85 3c cf a3 46 3d 9c 12 2f 3b dc 1d 8d bd
       0.016292216 0.048496064 0.0026713973 -0.06890461
000040 28 a1 0f bd 71 63 ea 3b 8e 05 82 bc e2 8f 7f 3c
       -0.0350658 0.0071529676 -0.01587179 0.015598269
000050 cd d2 b6 3c fa a0 c8 bd 3f 54 96 bd 12 fc a1 3d
       0.022317315 -0.09796329 -0.073402874 0.07909407
000060 81 bf d0 bd 0d 2d fb 3d 46 36 42 bd f9 a1 7c 3d
       -0.101927765 0.12264452 -0.04741504 0.061677907
000070 c2 b2 f4 bb 57 7f c4 bc ee 94 d2 bd 8e 3f ae 3c
       -0.0074675987 -0.023986502 -0.10282312 0.02127054
000080 79 be 88 bc 4d 6d b6 3d 61 70 c6 3d 7a 3f 05 bc
       -0.016692387 0.08907566 0.09689403 -0.00813281
000090 a4 c9 9a 3d 0f b2 c0 bd 3d 84 d4 bc 0d 29 8a bc
       0.07557991 -0.09408962 -0.025941962 -0.016865278
0000a0 6f fa 5b 3c 3a c0 5a 3b 4c 51 89 bd df 6a 7a 3d
       0.013426407 0.0033378736 -0.06704959 0.061137076
0000b0 25 a4 5b bd 20 4e be bd ec 87 ab bc d2 e0 23 3c
       -0.053623337 -0.09292245 -0.020938836 0.010002332
0000c0 e2 6c dc bd 2a 84 2f 3d 49 3a c2 3d 67 46 03 3d
       -0.10762955 0.04285065 0.09483773 0.032049563
0000d0 36 92 13 3c 23 1d d9 3c ee e6 5a 3d 78 cd c6 bd
       0.009007027 0.026503151 0.053442888 -0.09707159
0000e0 c2 0a 8d bd 9c 59 5f bd 1b a1 30 3d e9 01 26 bd
       -0.068868175 -0.054528818 0.043122392 -0.040529165
0000f0 1f a7 65 bd 52 d8 71 3d cd dc c7 3d b1 fc a3 bd
       -0.056067582 0.05904419 0.09758911 -0.080071814
000100 71 24 38 bd f9 0d 1c bd 80 1f 31 3d 20 97 a7 3d
       -0.04495663 -0.038099263 0.04324293 0.08183122
000110 e0 3a d0 bd 38 eb 94 3d 14 85 ba 3d 64 f5 f0 bc
       -0.101674795 0.07271427 0.09107414 -0.029413886
000120 75 1b 45 3d c7 bf 89 3d 1e b4 f9 bc 2a 0f a6 3c
       0.04812189 0.06726032 -0.030481394 0.020270903
000130 86 8d 8f 3d 23 3e ab bc 30 8e 6d bd 6e 5e 8f 3c
       0.07009415 -0.020903653 -0.05799693 0.017501082
000140 a9 8d f2 b9 dc c8 11 bd fc a7 78 3d bf 57 00 3e
       -0.00046263382 -0.035591945 0.060707077 0.12533472
000150 35 cf 34 bd 38 5a 0d bd 6f 9a 97 bd a6 0c a5 bd
       -0.04414292 -0.034509867 -0.07402503 -0.08059053
000160 a0 75 7b 3c 3e 43 52 bd 91 84 c3 3d 35 61 c9 3c
       0.015347868 -0.05133366 0.095467694 0.024582485
000170 d6 65 04 3e fa 13 c2 3d 9d a0 be bd ad 65 8a bc
       0.12929472 0.094764665 -0.09307978 -0.016894186
000180 41 26 b9 bd 3a 47 97 3a be 1f e6 3b a8 51 0c 3d
       -0.090404995 0.0011541613 0.007022827 0.03425756
000190 94 66 e2 bc 13 e6 29 3d 91 eb 87 bd 88 78 e7 3c
       -0.027636804 0.04147918 -0.066367276 0.028255716
0001a0 04 e9 a4 3c e3 c9 bc bd 6c 0c 8a bc 7a 3c 16 bc
       0.020130642 -0.09218194 -0.016851626 -0.009169692
0001b0 3e 61 fe bc 71 bd 66 3d 85 0d d6 3d b5 74 37 bd
       -0.031052228 0.05633301 0.104517974 -0.044789035
0001c0 9e 4e aa bd 4a af 40 3d 68 62 93 bc da 44 3b 3d
       -0.08315776 0.04704217 -0.01799126 0.04571996
0001d0 88 fc cd bd fa a7 7d 3d bd 58 3f bd a9 7b a4 bd
       -0.10057932 0.061927773 -0.046715487 -0.08031399
0001e0 43 a8 ad 3c 8a fc c1 3d fa 84 0b be d2 2d d9 bc
       0.021198398 0.09471996 -0.13624945 -0.026511107
0001f0 56 b7 a4 3c df 76 95 bd d1 e2 89 3d 77 6c 31 bd
       0.020106953 -0.072980635 0.06732715 -0.04331633
000200 e6 0f 9a bd f6 af 37 3c f5 c1 d8 bd b3 94 f2 bc
       -0.07522564 0.011211386 -0.10583869 -0.029611921
000210 ab ed 93 bd a2 ff 9b bb ee d3 47 bc bf 51 d2 bb
       -0.07223066 -0.0047606984 -0.012196524 -0.0064184363
000220 d7 14 f8 bc b7 97 d6 3c fb 06 9c bd 0e 7c d9 3d
       -0.030283375 0.02619539 -0.07618519 0.10619365
000230 b7 a1 9d bc d7 75 95 3b c7 47 b9 bd 55 8c db 3d
       -0.01924215 0.0045611667 -0.090468936 0.107201256
000240 60 26 c6 bc 69 7b d6 bd 31 f6 ef 3d a9 10 03 3e
       -0.02418822 -0.10472757 0.11716879 0.12799324
000250 78 96 b9 bd 7d f1 78 bc 66 a6 29 3d 95 1d 2a 3d
       -0.09061903 -0.015194294 0.041418456 0.041532118
000260 74 e1 dc bd 28 85 8e 3c 14 21 c8 3d 40 9e ff bc
       -0.10785189 0.017397478 0.09771934 -0.03120339
000270 da 4c 90 3c ec aa cd bd 1f 31 12 3d e9 b9 98 bd
       0.01761477 -0.100423664 0.035691377 -0.074573345
000280 24 7d cb 3c 93 f4 bf bc 28 61 ac bd bc f5 b2 3c
       0.024839945 -0.023432052 -0.084169686 0.02184569
000290 22 90 cb 3c 7f 74 f4 bc 51 b0 86 bd 38 7d e8 3d
       0.024849001 -0.029840706 -0.065765984 0.113520086
0002a0 06 51 a1 3c a4 df ba bc 63 ca 23 bd 24 59 2b 3c
       0.019691955 -0.022811718 -0.039987933 0.0104582645
0002b0 09 33 d7 bc 8f b2 a3 3d 3c 81 3b 3c 42 0e 9c 3d
       -0.026269453 0.07993042 0.011444386 0.07619907
0002c0 21 41 ad 3d 5b 0a d1 3c 4b 56 e2 3d eb f9 9f 3d
       0.08459688 0.025517633 0.11051615 0.0781134
0002d0 be 80 0e 3a 53 f1 82 bd b6 42 73 3c d6 9a 08 3e
       0.0005436054 -0.06393685 0.014847448 0.13340315
0002e0 01 4c 06 3d 4f 65 39 bd 33 79 0f bd c4 ce f6 b9
       0.032787327 -0.04526263 -0.035027694 -0.0004707483
0002f0 53 97 9c bd bd 46 0f 3e 2b b7 67 3d aa c6 46 3d
       -0.0764605 0.13991828 0.056571167 0.048529305
000300 e1 f5 55 bc ad bd 5c bd eb 8d bd bd 16 0b 05 3d
       -0.01305911 -0.053891826 -0.09255584 0.032481275
000310 58 fc 8b 3d 3c 49 f9 bd bb bb db 3c f7 fb b1 bd
       0.0683524 -0.121721715 0.026822915 -0.086906366
000320 b7 1c ed 3d 3f 9f 9e bb 2e 00 95 3d 9c c8 ca bd
       0.115777425 -0.004840761 0.07275425 -0.099015445
000330 ea 33 cf 3b 2c 0f 2d be ce fb 2e bc c4 3f 38 3d
       0.0063233273 -0.16900319 -0.010680152 0.044982687
000340 fb 93 fb bd be 68 1f bd 44 77 45 ba fc 05 d3 3d
       -0.122840844 -0.03891825 -0.00075327256 0.10303876
000350 c5 db db bd 32 f5 8e 3d bb cb 14 3e 15 db c5 3c
       -0.10735277 0.06980361 0.14530842 0.024152318
000360 e6 1d 85 bb 9b 69 27 bd 7f 19 10 3e 43 1e ae bd
       -0.004062402 -0.040872198 0.14072226 -0.08501866
000370 ff d9 18 be 88 ea be bd 55 7b 31 be d0 b0 95 3b
       -0.14926909 -0.09322077 -0.17332204 0.004568197
000380 02 dc 8a 3d d5 0e 20 be 38 14 34 be bb 58 87 3c
       0.067802444 -0.15630658 -0.17585838 0.016521802
000390 3e b2 fa bc 1a e5 10 be 04 5a b5 bc 2c 80 a9 3d
       -0.03060257 -0.14149895 -0.02213765 0.082764
0003a0 fa a5 93 3d 88 be 85 ba 79 03 bc 3c 16 00 c2 3d
       0.07209392 -0.0010203877 0.022950875 0.09472673
0003b0 00 6f 3d bd fc 82 38 3e 3e 64 52 be a5 75 e9 3c
       -0.046248436 0.18018717 -0.20546052 0.02849848
0003c0 fa be 95 3d 5f d2 0a 3e 9d 12 5f 3d f9 ff 0a 3c
       0.073118165 0.13556813 0.05446111 0.00848388
0003d0 91 17 54 3d ed 47 8e bd 26 6e b5 3d 0b 74 b5 3d
       0.051780287 -0.069473125 0.088589 0.08860024
0003e0 41 1a 7b 3d 15 13 4a 3c af bc fc bd c6 74 24 3e
       0.061304335 0.012333651 -0.12340676 0.1606017
0003f0 25 ee e7 bd 34 de 2c bd 2a b0 af bd b9 19 05 bd
       -0.11324719 -0.042204097 -0.085785225 -0.032495234

lstm.bias_ih_l0 f4 [400]
000000 9b 2e af 3d 8c ee fa 3c d0 ff b1 bd 5e 30 38 bc
       0.08553811 0.030631326 -0.086913705 -0.011242
000010 e6 b3 6e 3d 8b 2b aa 3b b0 dd 2f bc 3f d0 3e bd
       0.058277033 0.005193179 -0.010734007 -0.046585318
000020 0a 06 6a bd e7 13 77 3d d1 79 2e bd f1 b0 59 bd
       -0.057134666 0.060321715 -0.042596642 -0.05314726
000030 6a 46 29 3e 50 6d 46 bd 53 86 76 bd 94 83 25 3d
       0.16530767 -0.048444092 -0.060186695 0.040408686
000040 6d 33 5b 3d 79 26 8a bd 57 48 9d 3c da 99 93 3d
       0.05351584 -0.06745619 0.019199533 0.07207079
000050 2f 73 be bd 58 02 58 3d 8d 98 96 3d ee d2 9d bd
       -0.09299313 0.05273661 0.073533155 -0.07706247
000060 60 fa 2b be eb 52 36 3c d9 c7 b6 bc 70 68 31 bd
       -0.16794729 0.011128168 -0.022312092 -0.04331249
000070 df 7c c0 3d d0 e1 ca 3c 78 b3 65 3e 85 50 80 bd
       0.09398817 0.024765879 0.22431743 -0.06265358
000080 6a 16 1c be 3e b9 ae 3d 3c 85 5a bd af 2a 5a bd
       -0.15242925 0.08531426 -0.05334972 -0.053263362
000090 5d 36 2e be 54 4f 71 bc 8c 4d 0a be 62 56 64 3c
       -0.17012925 -0.014728386 -0.13506144 0.013936611
0000a0 37 d8 11 3d e8 55 da 3b 71 1f b0 3d 71 a1 c1 3c
       0.03560659 0.006663073 0.08599747 0.023636552
0000b0 ff 74 b7 3d 6b e0 57 bb c2 f7 87 3d 45 a0 1e bd
       0.08957862 -0.003294016 0.06639053 -0.038727064
0000c0 d8 70 09 be f6 b5 91 3d 34 1a 59 bc 6d 52 34 3d
       -0.13421953 0.071147844 -0.013250876 0.04402392
0000d0 81 53 b6 bd c1 af 75 bc b9 f4 d7 3c 28 ad 2c 3d
       -0.08902646 -0.014995516 0.02636181 0.042157322
0000e0 ed e9 34 3d 3d c8 cd 3d 97 f1 49 bd 94 ba 2d bc
       0.0441684 0.10047958 -0.049302664 -0.010603566
0000f0 65 08 92 3c e8 46 fa bc fd 68 9f bd 1c ec 8b bd
       0.017826268 -0.030551389 -0.07783697 -0.06832144
000100 b7 b3 d0 bb 51 d0 af 3d 9c ee ae 3d d4 cb 20 3d
       -0.00636908 0.08584655 0.08541605 0.039256886
000110 2d 8c 0a bd a5 85 a6 3c 30 7f a7 bd 47 8b dd 3c
       -0.03382509 0.020327399 -0.08178556 0.027043952
000120 9c 88 ac 3d e0 89 a5 3d cb 4e e5 3c 18 ac 5b bc
       0.08424494 0.08082938 0.027991673 -0.01340773
000130 f2 14 29 3e a9 56 6e bd 9e 2e 09 3d f0 65 be 3c
       0.16511896 -0.058188114 0.033491723 0.023241967
000140 00 e1 b6 3d 97 88 00 3e 98 f7 e7 bd b3 f5 85 bd
       0.08929634 0.12552105 -0.11326522 -0.06541004
000150 06 b0 eb bb 8c e8 d8 3d 9d 38 18 bb 11 1c 09 bd
       -0.0071926145 0.1059123 -0.0023227104 -0.03347403
000160 31 49 12 bc 27 75 5e 39 bd 2e 99 bd aa f9 19 3a
       -0.008928583 0.00021215212 -0.07479618 0.00058736897
000170 80 c9 11 bd dd f4 a6 bd 9a df 59 3d b0 04 43 3d
       -0.035592556 -0.08152173 0.05319176 0.047611892
000180 88 9d a5 3d 0b 80 f8 3d f1 a7 05 3e 33 f9 0c 3d
       0.08086687 0.12133797 0.13052346 0.034417342
000190 3f 5f 5c bc 96 11 10 bd 43 9a eb bd f4 9e a9 bc
       -0.013450443 -0.03517302 -0.115040325 -0.020705678
0001a0 68 50 86 3d 5d a3 90 bc 8b f8 aa 3c 61 ec c6 bd
       0.06558305 -0.017656023 0.020870468 -0.097130544
0001b0 ab 5c 6f bd 15 93 30 3d b8 41 e1 3c eb 08 93 bd
       -0.058437984 0.04310902 0.027497157 -0.07179435
0001c0 be bd 57 3d 24 ec b2 bd d9 5d ea 3c 29 10 2e 3c
       0.052671187 -0.087364465 0.028609203 0.01062397
0001d0 1b 9e 42 bd 44 36 2d bd 46 7f ac bd 47 f4 85 3d
       -0.047514062 -0.04228808 -0.08422713 0.06540733
0001e0 fa 15 b1 bd e3 f3 69 bd c1 4c 8e bd eb 0d bc bd
       -0.0864677 -0.057117354 -0.069482334 -0.09182342
0001f0 19 b2 09 be 32 38 4a 3d 2a c6 c2 3d c2 82 6e 3d
       -0.13446845 0.04937 0.09510453 0.05823017
000200 61 8a fe bd 5a 9f 9e 3d 5d 5e 04 be d8 59 dd bd
       -0.124287374 0.07745238 -0.12926622 -0.10808152
000210 9c ff 19 be f1 8a a9 3d e4 23 98 bd 3d f2 31 be
       -0.15038913 0.08278454 -0.074287206 -0.17377563
000220 69 08 2d be 57 10 dc bb 4e 92 51 3d 38 1f 62 bd
       -0.1689774 -0.006715815 0.051164918 -0.055205554
000230 bb 50 2a 3d 0a 25 6d bd 2b 95 d2 bd d0 05 bb 3d
       0.041580897 -0.05789665 -0.10282358 0.09131968
000240 09 0b 35 3d f0 10 a6 bd cc 0b 83 bd c4 d7 2e bd
       0.044199977 -0.08108699 -0.063987345 -0.04268624
000250 a2 e8 9a bc 80 26 c6 bd 75 33 ba 3c b2 95 bc 3c
       -0.018909756 -0.09675312 0.022729615 0.023020599
000260 f6 21 a1 3d 16 0f c8 bd 75 71 50 bd 19 ad a4 bd
       0.07867806 -0.097685024 -0.05088945 -0.08040828
000270 0b 53 d6 3c 2b cc a2 bd 12 01 5f bd c0 96 8f bd
       0.026162645 -0.07949098 -0.05444438 -0.07011175
000280 58 c6 75 3d e8 c2 84 bd d6 78 27 be 2b 97 29 bd
       0.06000361 -0.06482488 -0.16354689 -0.04140393
000290 2c a1 2d bd f6 67 83 3c 70 98 00 be d8 6c a7 3c
       -0.042390034 0.016040783 -0.1255815 0.020437643
0002a0 f0 fd 4a bd 37 97 1a be be 0f f6 bd 6a d0 b2 3a
       -0.04955858 -0.15096746 -0.12014721 0.0013642434
0002b0 93 18 2a bd 69 8b f5 ba 61 89 36 bd 47 42 65 3d
       -0.041527342 -0.0018733564 -0.04456461 0.05597141
0002c0 0b 1b 91 bd a7 ea 21 3c 6d a6 79 3c 0d 3d 0f bc
       -0.07085236 0.009882606 0.015237433 -0.008742583
0002d0 df 53 d8 bd 0e ba c8 3d 38 a1 bd bd 85 16 6d bd
       -0.10562872 0.09801112 -0.09259266 -0.057882804
0002e0 6b df f6 bd 34 d6 08 bd 5a ce 85 3c cc 51 69 3d
       -0.12054332 -0.033407405 0.016333748 0.056962773
0002f0 91 1d d3 bd 41 19 9e bd 2f 1d 11 be 00 0d da bd
       -0.10308374 -0.077196606 -0.14171289 -0.10647011
000300 2c 98 72 bd 5e 9c 1d 3d 5a 9b b3 39 56 58 81 ba
       -0.059227154 0.0384792 0.00034257286 -0.0009868245
000310 3c 0c 49 3d 0a 3e 31 3c 9f d1 e1 bd 60 7d 7b 3d
       0.049083933 0.010818014 -0.1102631 0.061398864
000320 e4 e6 0c 3d f9 57 89 bd f7 08 ae 3b de 27 b4 bd
       0.034399882 -0.067062326 0.0053111273 -0.087966666
000330 c1 d6 6f 3d 61 c9 80 3d a5 e4 98 bd 69 3f 7c bd
       0.058554415 0.0628841 -0.074654855 -0.06158391
000340 9e 28 fc 3c 77 ec e7 3c 59 58 56 bb 45 d1 a7 bd
       0.030781087 0.028310997 -0.0032706468 -0.08194212
000350 d0 f8 a9 bb 03 5e 77 3d 32 43 b5 3c 4f 0f 13 bc
       -0.0051871315 0.06039239 0.022126768 -0.008975818
000360 4c 54 8c bd 51 30 8a bd 7d 12 6b bd d4 cb 1b bd
       -0.06852016 -0.06747497 -0.05739068 -0.038036183
000370 a7 9f 49 bc b1 41 b8 bd aa 27 c4 3a b3 26 ee 3c
       -0.0123061305 -0.08996905 0.0014965434 0.029071188
000380 13 24 60 bb 75 6e 11 3c eb c0 3a 3c 52 c5 2a 3d
       -0.003420119 0.008876433 0.011398534 0.041692086
000390 4e 56 e4 3d 91 c5 c5 bc ef 41 9f bd ba b3 f1 bc
       0.11149274 -0.024142059 -0.07776248 -0.029504646
0003a0 67 81 6b 3d 0a 6a cb bc c0 c8 cf b8 b2 a5 b2 3d
       0.057496455 -0.024830837 -9.907922e-05 0.0872301
0003b0 b7 c5 f5 b8 6b 49 5f bd a1 fb f6 3c 90 57 2d 3d
       -0.000117193376 -0.054513376 0.030149283 0.042319834
0003c0 f7 e6 06 be 96 4e c2 bd a1 8e b1 3c df f7 e9 bc
       -0.13174044 -0.09487645 0.021674456 -0.028560577
0003d0 8a e4 7d 3d 34 7b 9f 3c 66 0c 68 bd d5 40 45 bd
       0.06198553 0.019467928 -0.05665245 -0.04815753
0003e0 a5 e8 84 bb 40 77 99 bb 1e 83 98 3d 15 50 a2 bd
       -0.0040560537 -0.004683405 0.074468836 -0.07925431
0003f0 c0 2a c8 3d 67 78 8c 3c 98 09 68 bd b7 47 6d 3a
       0.09773779 0.017147256 -0.056649774 0.0009051519

lstm.bias_hh_l0 f4 [400]
000000 ec e7 c6 3c 48 f8 8b bd e9 aa 73 3d 18 6e 74 3d
       0.02428051 -0.06834465 0.059489165 0.059675306
000010 c9 50 33 bd 25 d0 a7 bc 6c 26 82 3d 13 53 dd 3b
       -0.043778215 -0.020484993 0.06354985 0.006754288
000020 8f 91 97 3d 87 26 8e 3d 6c 4d 17 bd 58 48 85 3c
       0.0740081 0.06940942 -0.03693907 0.016269848
000030 8f 02 13 3e bc ff 25 be 09 bc 34 3d dd 2b 2f bd
       0.14356445 -0.16210836 0.044124637 -0.04276644
000040 fe 0a 3c 3d 2d 55 c9 bd 19 c7 b8 bd ab 21 52 bc
       0.04590892 -0.09830699 -0.0902235 -0.01282541
000050 8f 86 bf bd 51 01 a4 bd e6 64 15 3d bd 78 0e be
       -0.09351837 -0.080080636 0.036473177 -0.13913245
000060 f9 81 70 be f7 37 b0 bc 9b 07 70 bd f5 bb c9 3c
       -0.2348708 -0.021511061 -0.058601003 0.024625758
000070 d7 f6 55 bd e0 2a f1 3b a6 2f 31 3e 95 a9 e1 bd
       -0.052237358 0.0073598474 0.17303333 -0.11018673
000080 d8 95 2a bd e1 dc d7 3d d7 cc 19 3d 18 95 d3 bc
       -0.04164681 0.10540176 0.037548866 -0.02582793
000090 95 aa 86 be b7 6a 92 bc 29 0e db bd 33 0a bb bc
       -0.2630202 -0.017873151 -0.1069606 -0.022832012
0000a0 eb b5 94 3d 87 80 27 bc 41 5e eb 3d 0e 80 3e 3e
       0.072612606 -0.010223514 0.11492587 0.18603536
0000b0 29 ce 1a 3d 1d 6a 08 3e 4c 52 79 bd 3e 95 95 3c
       0.037794266 0.13321729 -0.0608695 0.01825964
0000c0 cd 36 4a be cc 2c 57 bd c2 b4 8b 3b bc 07 e6 bd
       -0.19747467 -0.052532956 0.0042634914 -0.11231944
0000d0 c8 84 45 bd 26 4d 35 3e 45 65 21 3e af 19 84 bd
       -0.048222333 0.17705211 0.15761288 -0.06450211
0000e0 f4 99 90 bd 95 9f cf 3c 11 88 27 bd 9c 82 03 bd
       -0.07060614 0.02534465 -0.040901247 -0.03210698
0000f0 53 31 87 bd e7 fd a2 3d 8b fd 9b bd e7 ba c3 3d
       -0.06601205 0.07958584 -0.07616719 0.09557133
000100 be df d6 3c 16 e3 ab bd b3 44 d3 3d 3e 9d 91 3d
       0.026229735 -0.083929226 0.10315838 0.0711007
000110 20 ae 88 3c 8b 25 81 3c 27 f4 5e be ba 77 93 3d
       0.016684592 0.015764972 -0.21772824 0.072005704
000120 c4 0c ad 3d 69 1a e7 3d cf df 07 3d 34 2b 5c bd
       0.084497005 0.11284334 0.033172425 -0.05375214
000130 a2 c6 f9 3c 3a 06 1b bc bf b7 e0 3c 4b 85 54 3d
       0.030490223 -0.009461934 0.027431367 0.05188493
000140 27 35 c2 3d 62 ee 4e 3e d3 d2 73 bb 7f 8b d1 3d
       0.09482794 0.20208123 -0.0037204518 0.10231685
000150 e4 bd 40 3d 30 19 5a bd 88 38 5e bd eb 4f 56 bd
       0.047056094 -0.053246677 -0.05425313 -0.05232231
000160 63 56 e3 3c 1c 92 12 3d 40 c0 1c bd 43 22 0b 3e
       0.027751153 0.035783872 -0.03826928 0.13587289
000170 19 a0 19 bd cc 9e ed 3d ea 6d dc 3b c8 5f be bc
       -0.037506197 0.11602554 0.00672697 -0.023239031
000180 9e 1b b0 bd c9 1b 1d 3e b5 dd 26 3e 09 08 cc 3d
       -0.085990176 0.1534263 0.16295512 0.0996247
000190 f6 19 1a bb bc d2 25 be 3e 6c 2c be 21 10 d9 bd
       -0.002351401 -0.1619367 -0.16838166 -0.105987795
0001a0 ad 8e 91 3c d4 81 9a 3d db e5 ad bc 0b 70 20 bd
       0.017768228 0.07544294 -0.021227768 -0.039169353
0001b0 4f 66 0f bd 0f 81 ed bd c3 34 8a bd cf fc ce 3d
       -0.03500968 -0.115968816 -0.06748345 0.10106813
0001c0 e7 cd fc 3c d9 e3 82 bd 0a 1e a6 bc 39 ac 7f bb
       0.0308599 -0.06391115 -0.020277996 -0.0039012565
0001d0 e5 10 b1 bd 4b 8f 20 bd e9 40 02 be c5 a5 72 3d
       -0.086458005 -0.039199155 -0.12720074 0.05924012
0001e0 8d 68 f4 bd a4 4c c5 bb 09 9e 81 bb 5d 78 62 be
       -0.11934004 -0.006021099 -0.003955607 -0.22116227
0001f0 7b b2 ce bd 31 e7 9c bd 79 5a 74 3b 5c 81 a1 bd
       -0.10092636 -0.07661284 0.0037285371 -0.078860015
000200 e4 17 24 bc 42 f5 bf 3d 08 53 a1 bd f6 a8 8a bd
       -0.010015462 0.09372951 -0.07877165 -0.06770508
000210 52 c7 a6 bd 10 1f 95 bc 4f d8 3a be b8 b0 14 be
       -0.08143486 -0.018203288 -0.18246578 -0.14520538
000220 3e a9 c6 bd 30 46 d1 3c 1a 8c 6f bd d1 12 3b 3d
       -0.09700249 0.025546163 -0.05848322 0.04567224
000230 98 9a 89 bd 0f 52 0e bd c2 9e 01 bd f3 a3 9c bd
       -0.067189395 -0.034746226 -0.031645544 -0.07648458
000240 db 64 18 bd db e7 88 3c dc f9 ad bd 89 90 19 be
       -0.03720556 0.01671212 -0.084949225 -0.14996542
000250 0b e1 8f bd ce 6f fe bd 89 00 c6 bd 7f e2 99 bd
       -0.070253454 -0.12423669 -0.09668071 -0.07513904
000260 ad c0 af 3c b6 8b 74 bd 41 d4 14 be 32 ca 94 bd
       0.02145418 -0.05970355 -0.14534093 -0.07265128
000270 19 03 38 bd 1d ae 5d 3b 53 f0 46 3d 9c 91 34 3d
       -0.04492483 0.0033825703 0.048569035 0.044084176
000280 4f e7 c3 bd c1 ce ac bd 4f f2 10 be 74 00 92 bd
       -0.09565603 -0.08437873 -0.14154933 -0.07128993
000290 eb 2d 11 bd 03 3c 3e bb d8 7b d3 bd 0b 54 b7 bd
       -0.03544418 -0.002902747 -0.10326356 -0.08951577
0002a0 4a f5 a5 3d 03 3a 57 be 69 e2 bd bc 0d 32 d6 bd
       0.08103426 -0.21018223 -0.02317925 -0.10458765
0002b0 c8 dd 08 be cc d0 4e ba 71 66 c3 bd 50 17 af bc
       -0.13365853 -0.00078893895 -0.095410235 -0.021373421
0002c0 6a de 5b bd 67 25 a6 bc 63 77 82 bd d4 39 d9 bd
       -0.053678907 -0.020281507 -0.063704275 -0.10606733
0002d0 7d 04 c0 bd 0a 79 17 3e f9 d1 bc bc 5f 56 0d 3b
       -0.09375856 0.14792266 -0.023049342 0.0021566374
0002e0 89 d5 57 3d 19 37 7f 3d 68 5a 4a bc c9 d2 18 3b
       0.052693877 0.062308405 -0.012350656 0.0023318997
0002f0 e1 2c 41 bd 7b d6 6e 3c 77 83 d5 bd 76 fa e8 bd
       -0.04716194 0.014577503 -0.104254656 -0.11375897
000300 42 4e f5 bd e6 d6 7b 3d 22 3e f1 3c 2b 0f 3d bd
       -0.11977817 0.06148424 0.029448573 -0.046157043
000310 37 f7 a1 bd c3 62 9b bd 4f 27 e7 bd 2d 34 dc bd
       -0.079084806 -0.07587197 -0.112867944 -0.10752139
000320 c8 c6 14 bd 51 b1 5c 3c 9e e9 96 bd 98 1a 43 3d
       -0.036322385 0.01347001 -0.07368778 0.047632784
000330 26 b9 45 bd da b0 a8 38 5b 61 b7 bd 94 f3 9b 3d
       -0.048272274 8.0438054e-05 -0.08954116 0.07614818
000340 2f 2d c9 3d 54 b4 f8 bc 44 7d f4 3c 57 8a d8 bd
       0.09823071 -0.030359425 0.029844888 -0.10573261
000350 f4 b6 d4 bc 56 30 91 bd 5e 13 18 bd 9b 1a 90 bd
       -0.025966145 -0.070892975 -0.037127845 -0.070363246
000360 8d 7a 6e 3d 3f 04 11 bc 8e 42 4d bd d0 8f de 3c
       0.058222342 -0.00885111 -0.0501123 0.027168185
000370 2d 49 b9 3d 47 b1 5b 3d 1e 24 a0 3d 95 ac 04 bd
       0.0904716 0.05363586 0.07819389 -0.03239115
000380 ff 61 da bc a3 6e d6 3c 29 ea 80 3c 6e 6f 84 bd
       -0.026658056 0.026175803 0.015736656 -0.06466566
000390 c1 3f 81 bd 95 8f 88 3d 3e e8 f3 bc f8 e2 b5 bc
       -0.06310988 0.06668011 -0.029773828 -0.022202954
0003a0 8e 0e 0c 3d e0 a5 38 3c f8 e5 94 3d 2b 08 51 bd
       0.034193568 0.011270016 0.072704256 -0.05103318
0003b0 8e de 51 bd 65 68 4e 3c fe 3e 7c 3d 88 39 d4 3c
       -0.051237635 0.012598132 0.06158351 0.02590634
0003c0 48 c5 85 3c ec a4 09 3d d7 8f d6 bd 71 c3 bf 3d
       0.016329423 0.033604547 -0.10476654 0.09363449
0003d0 3f b3 7f 3c 74 d6 02 3c c3 49 16 bd a2 fe dd bc
       0.0156067 0.0079857 -0.03669144 -0.027098957
0003e0 39 84 58 3d f5 7f 7e bd 12 09 7e 3c 9c 4d 50 bd
       0.052860472 -0.062133748 0.015505092 -0.050855264
0003f0 d1 a6 33 bc d8 61 02 3d 02 5d 9e 3d c6 ed 01 3c
       -0.010965065 0.031831592 0.077325836 0.007930225

lstm.weight_ih_l1 f4 [400, 100]
000000 e9 d1 a8 bc 44 71 b6 3d 30 45 b5 bd 37 32 92 3d
       -0.020607905 0.089083225 -0.08851087 0.07138484
000010 93 24 12 be 5f 04 93 bd 31 1e b7 3d 00 7d 41 bd
       -0.14271764 -0.07178568 0.089413054 -0.04723835
000020 ef dd bd bd 47 e3 de 3c 20 13 9b bd 4b 7f 92 3d
       -0.09270846 0.027207984 -0.07572007 0.071531855
000030 4c ac ab 3c 77 f6 22 3d 56 2d 4f 3d e5 b5 20 3d
       0.020956181 0.03978583 0.050580345 0.03923597
000040 57 c0 c6 bd ed 83 c7 bc 94 5b 9e 3d ec 38 4d 3d
       -0.09704655 -0.0243549 0.07732311 0.050103113
000050 a9 e9 8b 3c 22 fb 42 ba d3 15 1e be 72 67 f6 bc
       0.017079191 -0.00074379344 -0.15438013 -0.030078623
000060 48 ed 94 bd 01 92 b0 bc 7a de 2f bd d0 3d b8 3c
       -0.0727182 -0.021553995 -0.04293678 0.022490412
000070 18 0a 39 bc ef c5 be bd 86 48 89 3a 71 96 4d bc
       -0.01129391 -0.093150966 0.0010473884 -0.012548075
000080 88 8d 15 bd df e8 9e 3d 04 e7 23 be 4e 12 d3 3c
       -0.036511928 0.077592604 -0.16006094 0.025765564
000090 ad 14 31 bd 34 21 27 3e e9 12 e4 bd f0 88 9e 3d
       -0.04323261 0.1632126 -0.11136419 0.077409625
0000a0 85 51 e0 3d ca e4 fe 3b 11 0e bf bb 4e 78 d2 3c
       0.109530486 0.0077787386 -0.0058305343 0.025692131
0000b0 96 79 44 bd e9 0f e9 bd 4e 16 1b 3e 45 41 5a 3d
       -0.047967516 -0.11379988 0.15145227 0.053284902
0000c0 61 98 f6 3d 15 bc a1 3d 09 5c 60 bd 4d 71 73 bd
       0.12040783 0.07897202 -0.05477527 -0.059434224
0000d0 57 56 46 bd b2 8e 00 3e 85 61 bd 3d d4 d8 0d bd
       -0.048422184 0.12554434 0.09247116 -0.03463061
0000e0 1a bd 47 bd d9 f9 d5 bc 57 d4 16 3d 16 c1 ec 3c
       -0.048764326 -0.026120113 0.036823597 0.028900664
0000f0 41 a3 86 3d 44 87 89 3d 3b ae 9d 3d 6d 26 85 bd
       0.06574107 0.06715253 0.076992474 -0.0650147
000100 90 ab fe bc bc 9a 87 bd 52 46 29 3e 2d b1 bb bd
       -0.031087667 -0.0662131 0.16530731 -0.09164653
000110 a7 5b 86 3d f0 9e eb bd cb 81 8f bd 0e 4f 03 3e
       0.0656045 -0.11504924 -0.07007178 0.12823126
000120 fb a2 f2 bc f8 23 ff bc a3 86 4a 3d be ca 90 3d
       -0.02961873 -0.03114508 0.049444806 0.0706992
000130 33 25 c6 bd 04 57 e1 bb 7a ef e5 3d d5 1a 8d 3c
       -0.09675064 -0.006876828 0.11227317 0.017224709
000140 d3 1c 91 3d de 15 8b bb 90 59 f0 bd 7e c2 b2 3d
       0.07085576 -0.00424455 -0.11735833 0.08728503
000150 b6 a7 5b bc 5e f7 94 bc 6f 4b 0f bd 2e 4a a1 bc
       -0.013406685 -0.01818436 -0.03498405 -0.019688692
000160 59 5c de 3d 12 06 ae 3d da 9e 04 3d bc 38 a7 3a
       0.10857458 0.084972516 0.032378055 0.0012757997
000170 29 83 1a bb a2 35 be 3d 2b 01 d6 bc bd 81 a7 bd
       -0.0023576713 0.092875734 -0.026123604 -0.081790425
000180 68 57 b3 bd 78 9a b4 3d 13 63 a4 bb 93 ab ac bd
       -0.08756906 0.08818525 -0.0050166934 -0.08431163
000190 14 39 18 bd 38 db b8 3d 97 7d 72 3d 9f 7e 01 3d
       -0.03716381 0.09026188 0.059201803 0.031614896
0001a0 87 e2 fa bd cc e0 c1 bb 4a 01 78 3c a1 87 89 3b
       -0.12250238 -0.0059166905 0.015137026 0.0041970764
0001b0 83 63 22 bd 49 88 1f 3c 9a e6 e4 bd c3 d0 97 3d
       -0.039645683 0.009737083 -0.11176796 0.07412865
0001c0 b7 c6 48 bc 42 1f c7 bc c1 22 6e bd 13 e9 c3 3d
       -0.012254409 -0.024306897 -0.058138613 0.0956594
0001d0 70 8b e4 bc 76 79 87 bc ac cf 85 bd 4d 4d 14 3e
       -0.02789852 -0.01653741 -0.06533751 0.14482613
0001e0 c4 c8 78 bd 3e 5f 73 bd cb 9e 1f 3d 25 16 c5 3d
       -0.06073834 -0.059417002 0.038969796 0.09623364
0001f0 1e 3c 86 bd 1d 91 29 bd 0f 24 dc bd 32 c0 ef 3d
       -0.06554435 -0.041398156 -0.10749065 0.1170658
000200 76 3e 58 3d af 86 34 be 9f 7e aa 3d dc a1 87 3d
       0.052793942 -0.17629503 0.08324932 0.06622669
000210 c5 c4 8c bc 73 cd 50 3d 57 cb cf bd ff e8 81 bd
       -0.01718367 0.05097718 -0.10146206 -0.063432686
000220 97 f3 29 3d 04 68 2a 3d 88 0f a7 bd 08 f9 af bd
       0.04149207 0.041603103 -0.08157259 -0.08592421
000230 1b 80 a1 3d ac 25 97 bd 38 73 97 bd 82 0a 39 3d
       0.07885762 -0.07380232 -0.07395023 0.045176037
000240 91 fc 71 bd 10 ae 90 3d 46 70 eb 3d df 82 b8 b8
       -0.059078757 0.0706445 0.11496024 -8.79818e-05
000250 2a 75 16 3d 39 72 b7 3d 18 48 ea 3b 8b 70 43 3c
       0.03673283 0.08957333 0.0071497075 0.011928688
000260 02 0e ba bc 52 83 aa 3d 67 fd 11 be cb a8 52 3d
       -0.022711758 0.083258286 -0.14256822 0.051430505
000270 65 b2 2f 3d 85 b3 d4 bd 39 9a 0f 3d bb 50 c0 3c
       0.04289474 -0.10385803 0.035059188 0.023475995
000280 94 15 ea 3c 02 e6 e3 3c ad d8 70 bd 93 b1 3a bd
       0.028574742 0.027819637 -0.058800388 -0.045579504
000290 19 e5 77 3d 45 da ea bd b9 d7 3b bd 8d 26 64 bd
       0.06052122 -0.11467413 -0.045860026 -0.055700827
0002a0 5b 03 a0 bd a1 a3 a8 3c a2 f9 1d bd 84 5c de 3c
       -0.0781314 0.020585837 -0.038568147 0.027143724
0002b0 5c 4c 3b bd 74 a9 3f bd 55 60 80 3c 42 0d 4b 3d
       -0.04572712 -0.046792462 0.015670935 0.04957319
0002c0 b5 87 fa 3c a5 8e 06 3e 84 04 ca 3d d0 dc 5f bd
       0.030582288 0.13140352 0.098641425 -0.054653943
0002d0 59 b1 06 bd b8 31 a4 bc 3c 2a 93 bd b9 9f f0 3d
       -0.032883976 -0.020043239 -0.0718579 0.11749215
0002e0 17 80 b7 bd 31 0b 50 bd 0f 4c 80 bd f3 c6 80 3d
       -0.08959978 -0.050791923 -0.06264507 0.062879466
0002f0 14 ec c1 3d 77 85 c3 3c 51 a2 5c 3d 0d 6f a1 bd
       0.094688565 0.023867352 0.053865734 -0.078825094
000300 9f 60 98 bd 8b 7a be bc 00 e6 9d bc 61 8c bf bc
       -0.07440304 -0.023251792 -0.019274712 -0.023382368
000310 50 a0 c6 3d 8d 9d 16 3d b5 26 fe 3b 33 00 ae bd
       0.09698546 0.036771346 0.007756079 -0.08496132
000320 9e 51 a7 3d a6 91 55 bd cc 39 57 bc 35 1e 1e 3d
       0.08169864 -0.052140854 -0.013136338 0.038603026
000330 7d f0 86 bd ba 53 39 3c 6a 49 35 bd a9 26 05 3e
       -0.06588838 0.011311466 -0.044259466 0.13003029
000340 1d ad fe 3c 8b 32 2b bc 2f a5 01 3e e4 d8 fe bd
       0.031088406 -0.010449062 0.12660669 -0.12443712
000350 59 8e 65 bd 1a 45 93 bd 96 7e b6 3d 78 5e f2 bc
       -0.056043956 -0.071909145 0.08910863 -0.029586062
000360 77 93 2c 3d b0 90 da 3d ab a9 76 3d 3c fa 39 3d
       0.04213282 0.10672128 0.0602204 0.045404658
000370 b4 4b c1 3c 98 b1 a3 3d 1d 72 cd 3c 67 93 38 3d
       0.023595668 0.07992858 0.025078828 0.04506245
000380 8c ee cd 3d e2 1d f7 3c 97 55 fd bd 30 df 63 3d
       0.10055265 0.030165616 -0.123698406 0.05563277
000390 b6 ae c1 bd 42 15 b2 bc f5 14 f4 3d b2 8a 81 bd
       -0.094571516 -0.021738652 0.1191806 -0.06325282
0003a0 cd 17 66 3d 46 2e d9 3d d1 63 05 bd 94 f2 a1 3d
       0.056175042 0.10604529 -0.032565895 0.07907596
0003b0 f3 6c e8 3d 85 7a f1 3d 6d 6e 4b 3c 72 be 8e 3b
       0.113489054 0.11790947 0.012416464 0.004356199
0003c0 1a 66 ea 3d b6 66 84 3c b3 2c 83 bc 72 06 1c 3d
       0.114452556 0.016162258 -0.016012525 0.038092084
0003d0 1b f8 57 3d fe b7 f3 bc bc 72 a9 3d 0e 09 2c bd
       0.052726846 -0.02975082 0.08273837 -0.042000823
0003e0 b1 d2 82 3d b5 08 0b 3e 1a e5 18 3c 86 59 5f 3c
       0.063878424 0.1357754 0.009331966 0.013632184
0003f0 6e 8a 53 3d a5 77 9b 3d d5 30 b0 3d ab ac 8d bd
       0.05164569 0.0759118 0.08603064 -0.069176994

lstm.weight_hh_l1 f4 [400, 100]
000000 e4 e4 d3 3d 0d 9f 12 3d c4 6c 96 bb 6c 9c fb bd
       0.10346392 0.035796214 -0.0045906026 -0.122856945
000010 2b 87 d7 3d b0 f3 1b 3e f2 74 94 3d 9d de 8d bc
       0.10523828 0.15229678 0.07248868 -0.017318064
000020 b3 9f 0b 3c 0b b7 04 bd b4 4e 1f bd 7b f8 41 bc
       0.008521962 -0.032401126 -0.038893417 -0.0118390275
000030 f3 5b b4 bb 58 3e 84 3c 87 ad a8 bd a9 14 ee 3c
       -0.0055041253 0.016143009 -0.08236223 0.029062586
000040 cc cc a7 3d a5 b4 00 be 47 da 87 bd 22 d0 89 bd
       0.08193359 -0.1256891 -0.0663343 -0.06729151
000050 5b 82 76 3d 03 cb d2 bd 96 33 d6 3d 7c 44 5a bc
       0.06018291 -0.10292628 0.10459058 -0.013321992
000060 14 5e 53 3d 22 2b 99 3c bc f7 37 bd b0 5b f7 bd
       0.05160339 0.018697325 -0.044913992 -0.12078035
000070 25 02 44 bd ae 75 fd 3d 57 9c 56 bb e7 03 a5 bd
       -0.047853608 0.12375961 -0.0032746994 -0.08057385
000080 c0 dd e3 b9 fb 25 0f 3d 61 fc 26 bd 96 7c e7 bd
       -0.0004346203 0.03494833 -0.04076803 -0.1130306
000090 76 14 a1 3c 24 a3 61 bd 71 b7 b2 bd 7f cd d3 bd
       0.019663077 -0.055087224 -0.08726395 -0.1034193
0000a0 23 47 5f bd 87 0f 5f bd de 09 3a bc 70 5d aa 3d
       -0.0545112 -0.054458167 -0.011354892 0.08318603
0000b0 4d b2 20 3d f2 da 2a 3d 19 dc 5d 3d 9f 8a ea bb
       0.03923254 0.04171271 0.05416498 -0.007157638
0000c0 02 4c 2a bc 54 ce a5 bc 60 de 44 3d c6 6e f0 bd
       -0.010394098 -0.020239986 0.048063636 -0.11739878
0000d0 2f ec 39 3d 26 23 21 3c c8 b9 e8 bd 37 fb 30 be
       0.045391258 0.00983504 -0.1136356 -0.17283331
0000e0 1d 30 1f 3d e7 50 28 bc 9f e1 6c bd f2 c3 76 bd
       0.038864244 -0.010273195 -0.057832357 -0.06024546
0000f0 9a e2 08 bd 8f 95 72 3d 11 61 59 3d ab cd 2c bd
       -0.03341923 0.05922466 0.053071085 -0.042188328
000100 a9 c7 0f bc a2 c5 d6 3d 79 53 62 3d 40 a3 1a 3d
       -0.00877563 0.10486914 0.055255387 0.037753344
000110 a6 f1 a0 bc 62 27 54 bd de 3a 49 3d e2 ef 3d bd
       -0.019646477 -0.05179537 0.049128406 -0.04637135
000120 00 ff ff bb f0 14 e1 bd 4a d3 91 3d f6 8a 90 bd
       -0.007812381 -0.10990322 0.07120378 -0.07057755
000130 99 ef bc 3d 61 05 0d be e6 ee 76 3d d0 55 ef bc
       0.09225387 -0.13771583 0.060286425 -0.029215723
000140 b3 8d de 3d 47 a2 2e 3d 68 24 a5 bd 39 53 2c bd
       0.10866871 0.04263523 -0.080635846 -0.042071555
000150 f9 e0 5f 3c 50 3d 42 3d 61 d7 e3 bd b7 3f 08 3d
       0.0136644775 0.047421753 -0.11125065 0.03326389
000160 d8 ae 0f 3e d1 9c 55 3d b9 dd 21 bc 02 3a a5 bd
       0.14031541 0.052151505 -0.009879523 -0.08067705
000170 a5 3a b3 3d 24 5c 22 3e 29 57 af 3b f7 c2 97 3d
       0.0875142 0.15855461 0.0053509665 0.074102335
000180 6d 9b 7e bc 59 08 03 3d 56 19 02 bd c1 bb 17 bd
       -0.015539986 0.031990383 -0.031762443 -0.03704429
000190 b5 ea aa 3d 59 42 2e 3d 78 31 04 bb d7 81 b7 bd
       0.08345548 0.042543743 -0.0020171087 -0.08960312
0001a0 3b fa f3 3c fc a2 53 bd 71 fa df 3d f8 45 8c bd
       0.029782405 -0.051669106 0.1093644 -0.06849283
0001b0 14 fc 65 bd cb 94 77 3d d8 b7 58 bd d8 d7 8b 39
       -0.056148604 0.060444634 -0.052909702 0.00026672962
0001c0 8b 6d 82 3c 24 3e f2 3d 26 6e 08 3d 23 4a 91 bc
       0.015921375 0.11828259 0.03330817 -0.017735546
0001d0 02 bb 81 bd 63 ce ba bd f2 7c 08 be ae d5 c5 bd
       -0.06334497 -0.091213964 -0.13328913 -0.09659897
0001e0 96 32 88 bd 79 63 8c bd 2a ac 7c bd 58 50 81 bc
       -0.066502735 -0.068549104 -0.061687626 -0.015785381
0001f0 e2 e0 84 3c ee 13 80 bd c2 d8 0a 3d 6a 24 9e bd
       0.016220514 -0.06253801 0.033898123 -0.07721789
000200 97 cd ca 3b 2c e3 5d 3d f0 a3 ab bd 0a 6e 06 bc
       0.006189059 0.054171726 -0.08380878 -0.008204946
000210 f4 8c 76 ba 20 6e a4 3c 6f a5 2c bc 8a 9a cb bb
       -0.0009405159 0.020072043 -0.010537489 -0.006213491
000220 f1 05 e4 3d c1 5f 93 bc 58 d0 9f 3d 22 a4 5c bd
       0.11133946 -0.017989995 0.0780341 -0.053867467
000230 c2 58 09 bd bb 74 ea 3c ef b8 f7 3b 32 f2 44 3c
       -0.03353191 0.028620115 0.0075598876 0.0120206345
000240 f8 e2 c5 3d cf b7 85 3d 0d 04 74 3c 2e 12 9e 3d
       0.096624315 0.06529199 0.014893544 0.07718311
000250 0b 48 6b bd da 98 da 39 02 cf c7 3d a6 e7 08 3d
       -0.057441752 0.00041694083 0.097562805 0.033424042
000260 d4 6e d8 3d 3d 88 91 3b 4a a8 9b bc 84 c7 48 bc
       0.10568014 0.0044412897 -0.019001145 -0.0122545995
000270 2c 33 42 bd 43 45 47 bd 04 d0 2a bd 09 99 b4 3d
       -0.047412083 -0.048650037 -0.041702285 0.08818252
000280 f0 61 16 bc da a5 61 3d 58 d3 36 3c 1e 8b c1 bd
       -0.009178624 0.05508981 0.011158787 -0.094503626
000290 6c 81 55 bc 26 bb 78 3c 91 a6 4c 3d f3 03 f1 3c
       -0.013031345 0.015181338 0.049963538 0.029420828
0002a0 9f b2 9b bd ff b1 24 3c f6 7b 60 bd 06 c1 ad 3d
       -0.07602429 0.010052203 -0.05480572 0.08484082
0002b0 9f cb 9e 3d 21 d1 f9 bd 38 01 d3 bb 36 53 61 3d
       0.077536814 -0.12198091 -0.0064393543 0.055010997
0002c0 09 f7 5b bd 82 0a 2f bd 72 c1 1c 3a c2 e3 5f 3c
       -0.053702388 -0.04273463 0.00059797533 0.013665142
0002d0 cc f1 fb 3d 13 28 23 be 74 22 ec bd a4 3c 83 bd
       0.123019785 -0.15933256 -0.11530009 -0.06408051
0002e0 cc 39 96 3c b5 05 46 3c de 04 a4 bc 97 83 8e 3c
       0.018338107 0.012086322 -0.020021852 0.017396731
0002f0 94 8b b9 bc a3 8d cd bd e4 d2 ac 3c 1e f1 63 3a
       -0.022649564 -0.10036781 0.021096654 0.0008695292
000300 86 f3 35 bd 30 ea 27 bd 9d ad 3c bd 36 77 d1 3d
       -0.044421695 -0.040994823 -0.046064008 0.10227816
000310 6b 4a bc 3d e5 4f c3 3d 6c ba a1 bc 54 6a 64 bd
       0.091938816 0.09536723 -0.019742213 -0.055765465
000320 89 e6 aa 3d 12 8e 9e bd 1b df 11 bd d5 55 ac bd
       0.08344752 -0.077419415 -0.03561316 -0.08414809
000330 da ce 16 3e 82 2c 52 3c e8 1a 3c 3d 25 31 b0 bc
       0.14727345 0.012827994 0.045924097 -0.021507809
000340 51 b0 ce 3c db f8 25 3d 14 ca 3f bc 32 2f 05 3e
       0.025230559 0.04052053 -0.011705894 0.13006285
000350 15 0b 97 bd 8c 4c 81 3d db 0d ed 3d 96 63 49 3c
       -0.073751606 0.06313428 0.11574908 0.01229181
000360 03 3e 42 bd eb 9f 14 3d b4 48 95 3b 45 41 4d 3b
       -0.04742242 0.036285322 0.004555786 0.0031319421
000370 5e 0e 24 bd 31 b5 63 bd ce 94 01 3e 07 91 e1 bc
       -0.040052764 -0.05559272 0.1265442 -0.027534975
000380 a7 ae 60 3d 04 1d ba 3b ac 8b fc 3c 0d 61 0c be
       0.05485406 0.0056797285 0.03082832 -0.13708897
000390 2b e7 ea 3c c6 70 86 3a 8a 92 50 bd 81 0a a6 3d
       0.028674683 0.0010256998 -0.050921 0.08107472
0003a0 3b 41 07 3b 66 ad c5 3d e3 ca 8c 3d 64 5a 02 be
       0.0020638246 0.09652214 0.06874635 -0.12729794
0003b0 c6 ec 65 3d 62 ad 99 bd 0b 72 4b 3d 56 d3 fd bd
       0.056134008 -0.07503773 0.049669307 -0.12393825
0003c0 c0 6e e0 3c 49 bd 43 bd 29 12 ff 3d 8d c9 7c bd
       0.02739656 -0.04778794 0.12454636 -0.06171565
0003d0 f0 7d 59 3d b0 9b 41 3e 86 84 12 3d 8d d5 74 3c
       0.05309862 0.18907046 0.035770915 0.014943493
0003e0 1d 2d 09 3d ba 85 ed bd 99 12 d9 3d 8a 26 03 be
       0.03349029 -0.11597772 0.1059925 -0.1280767
0003f0 e8 ad 04 3e 1e 55 21 be 5a 44 bf ba 56 29 66 bd
       0.12956965 -0.15755126 -0.0014592514 -0.056191765

lstm.bias_ih_l1 f4 [400]
000000 31 c3 a4 3d 34 9c 80 3d 72 9b 88 bd ba 7f 4b bd
       0.08045042 0.062797934 -0.06670274 -0.049682356
000010 9a 0a 69 bd 53 96 26 3c 61 7d 0a 3d 55 62 5b 3d
       -0.056894876 0.010167676 0.033810977 0.053560574
000020 8d 3a 82 bd d0 34 90 bb f0 27 9f bd 08 76 43 3d
       -0.06358824 -0.004400827 -0.07771289 0.047719985
000030 30 4e 6b 3c 57 f4 86 bd 39 8a 09 3c 3e 68 43 3d
       0.014361903 -0.06589573 0.008394771 0.047706835
000040 b4 17 22 bd 9b 40 93 3d 67 d7 7f 3d 77 83 ed bd
       -0.039573386 0.07190057 0.062461283 -0.115973406
000050 21 d3 7b bd be 30 90 bd 6b 4e 0b bd e5 91 fc bd
       -0.061480645 -0.07040547 -0.034010332 -0.12332515
000060 16 29 52 bd 40 a9 f9 3d 75 49 0c bd df 90 d2 3d
       -0.051308714 0.12190485 -0.03424974 0.10281538
000070 34 be 89 bd f9 e0 86 bc 90 1b aa bd 41 4b 3c bd
       -0.067257315 -0.016464697 -0.083060384 -0.045970205
000080 2a de 77 3d 36 ab 3d 3d 67 4a f9 3c 98 1b 4a bc
       0.060514607 0.046305858 0.030430986 -0.01233568
000090 c8 13 2f bc 4f 1c 29 bd a1 2b ce bc 7b 40 ad 3a
       -0.010685869 -0.041286763 -0.025167288 0.0013218069
0000a0 6e 64 f7 3d 6e e0 32 3c 48 ab d8 3a 21 63 d3 bd
       0.12079702 0.010917766 0.0016530538 -0.10321642
0000b0 9d a6 ab bd ad 9a 20 3e 77 93 a2 3d e1 2f 3b bc
       -0.08381388 0.15684004 0.07938283 -0.011424989
0000c0 ae 44 41 3d 07 1a b4 bd cd 1b 4e 3d 00 d3 cb 3c
       0.04718464 -0.08794027 0.05031948 0.024880886
0000d0 62 bf 91 3c cf e8 70 bc d9 88 73 bd 10 e3 90 bd
       0.017791454 -0.014703943 -0.05945668 -0.07074559
0000e0 e2 c2 9d bd d3 1b 6e 3d 7a 4f 8f bd b4 2c 94 bd
       -0.077031866 0.058132004 -0.06997581 -0.07235089
0000f0 49 ea 20 3d 6a 8a 3a bd eb cf 54 bd ab 12 b6 bd
       0.03928593 -0.04554216 -0.0519561 -0.088902794
000100 3f 3c 97 bd 91 10 30 3e 46 6a 0d bd 9d 55 98 3d
       -0.07384538 0.1719382 -0.03452518 0.074382044
000110 11 26 28 3e 1a 37 67 3d cd 79 99 bd 12 07 19 bd
       0.16420771 0.056449033 -0.07493935 -0.03736026
000120 be 4e 22 bd b4 41 48 3d 2d 2e 80 bc b6 8e 68 3a
       -0.039625876 0.048890784 -0.015647018 0.0008871363
000130 2c a7 06 be 3b 10 06 3e f6 19 07 3d ad 27 85 bd
       -0.13149709 0.13092129 0.032983743 -0.06501708
000140 b7 42 4a bc a4 2b 93 bd 5a e8 0a 3e 95 c0 d9 3c
       -0.012345008 -0.07186058 0.13565198 0.026581088
000150 47 ce 30 3c 5b b0 83 bc 44 45 14 bc a9 7b 9f 3c
       0.010791368 -0.016075304 -0.009049717 0.019468145
000160 b6 21 e0 bc 3a a0 c6 3c f4 d3 05 bb cd 0d d2 bd
       -0.027359825 0.024246324 -0.0020420523 -0.102565385
000170 9b 7a f8 3b d5 fe dc 3d 38 c2 e7 3c 9a cb 14 bd
       0.007582975 0.10790793 0.028290853 -0.036326982
000180 76 51 50 3d 9c 04 e6 3c e1 d7 8b ba 4f 83 2c bd
       0.050858937 0.02807837 -0.0010669195 -0.042117413
000190 eb 0c a4 bd 51 e2 ef bd a0 12 b7 3b 68 d6 d7 bd
       -0.080102764 -0.11713088 0.005586937 -0.105389416
0001a0 6b ca 2c bd 12 9e 10 be e1 6c d7 bd d1 b7 11 bd
       -0.04218523 -0.14122799 -0.10518814 -0.03557569
0001b0 e7 e1 41 bd 68 15 45 bc d4 08 9b 3d 8d f9 ed bd
       -0.047334578 -0.012029029 0.07570043 -0.11619864
0001c0 30 02 ac 3d 06 bc a5 bd 69 23 9d bd 32 9e 99 bd
       0.08398855 -0.08092503 -0.076727696 -0.075008765
0001d0 bd bd 8c 3c 31 09 9d bc df dc 15 be e2 3b 9a bd
       0.017180318 -0.019169422 -0.14635037 -0.07530953
0001e0 af 7d 60 bd 82 84 1b 3d dc 2b e1 bd c5 2d 9f bd
       -0.05480736 0.037968166 -0.10994694 -0.07772402
0001f0 90 de ca bd a5 0a 29 bd 8b 01 b9 bd b2 33 ae bd
       -0.09905732 -0.041269917 -0.090334974 -0.08505954
000200 4c ed 60 bd 8e 0c ce 3c bc ff f2 bc 30 79 5b bd
       -0.054913804 0.02515247 -0.02966296 -0.05358237
000210 f8 7b d3 bd b1 3b 74 bd 33 fd 01 be ff 2a f1 bd
       -0.103263795 -0.05962724 -0.12694244 -0.11775779
000220 a5 4a d4 3c 0e 99 07 3d 8d ee ad bc 4b d2 48 bc
       0.0259145 0.03310495 -0.021231914 -0.012257169
000230 df b8 e2 3d 22 05 a9 bd ca 69 17 3c b4 ce 77 be
       0.110704176 -0.08252932 0.009241531 -0.24199945
000240 6d 81 c5 bd e7 a6 ac bd 35 9d 65 bd 65 29 ed bd
       -0.09643827 -0.084302716 -0.056058127 -0.11580161
000250 c7 c8 fc 3b fc c7 ff bc 6f 3c 1f bd b0 ca c0 bc
       0.007714364 -0.03122329 -0.038875993 -0.023534149
000260 30 98 f4 bd 42 3b 0e be c0 a1 15 3d e8 b0 b8 bd
       -0.1194309 -0.13889793 0.03653121 -0.09018117
000270 8c 06 9b bd 2c 31 e3 bd 34 e9 b8 3b 7e 0f ea bd
       -0.07569608 -0.11093363 0.0056430344 -0.11428736
000280 e9 07 2e bc d4 5c 89 3d 92 75 3b 3c 2d 57 c8 bd
       -0.010622003 0.06707159 0.011441605 -0.097822525
000290 e7 81 22 3c 9d 35 18 3e 24 eb dc bc 61 53 25 3d
       0.009918666 0.14864202 -0.026967593 0.04036272
0002a0 b0 28 4d bd 82 a0 8d bd bf 45 90 3d 3c dd 34 bd
       -0.05008763 -0.0691538 0.07044553 -0.044156298
0002b0 03 d5 ca bc 83 b8 97 3d 3c 2d 1e 3d e1 e5 65 ba
       -0.024759775 0.0740824 0.038617358 -0.00087699114
0002c0 d3 fa 8a bd 97 ee de bd 0a af 95 bc c2 a8 ec bd
       -0.06786122 -0.10885351 -0.018271942 -0.115556255
0002d0 bf 7c ef bd 7d e8 09 be 5a 11 63 3b 0f c4 a2 bd
       -0.11693715 -0.13467593 0.0034647794 -0.079475515
0002e0 58 1c 74 3c bf a7 e1 bc e0 a0 0a be d0 86 68 3d
       0.014899336 -0.027545808 -0.13537931 0.056769192
0002f0 01 b8 c3 bd f4 3a b5 bc 1d 5f 3f bd cb 7a c2 bd
       -0.0955658 -0.022122838 -0.046721566 -0.09496077
000300 1a 97 c4 bc 36 83 06 be 84 6d 6c bd ec cf 53 bd
       -0.023997832 -0.1313599 -0.05772163 -0.05171196
000310 2a f9 9a bc e4 a6 44 bd da 3c 49 3d 4d ca 78 3d
       -0.018917639 -0.04801072 0.0491303 0.060739804
000320 47 5a ff bb e1 2a aa bc 25 71 c5 bd 2e 94 cf 3d
       -0.0077927443 -0.0207724 -0.09640721 0.10135685
000330 c7 65 16 3d 1e 50 0d bd 3b 72 ec bd 22 64 45 3d
       0.036718156 -0.034500234 -0.11545225 0.048191197
000340 72 ba ce bc c9 c1 ce bd 7f a3 e7 bd 5c 16 07 3c
       -0.025235388 -0.10095555 -0.11310481 0.008245077
000350 7d 70 fa 3c da 5f bf 3d 83 62 03 3d f3 3d d8 bd
       0.030571217 0.09344454 0.03207637 -0.10558691
000360 a0 27 1c bd 4c ff 66 bd 3d 1c ab 3c d3 b7 2a 3d
       -0.038123727 -0.056395814 0.020887488 0.041679215
000370 91 18 be 3d 4e ec 9a 3d 33 0b ee bd b4 b2 43 3d
       0.092820294 0.07564603 -0.1162323 0.047777846
000380 bf c1 88 3d d4 cd 07 bd 0e e1 42 bd 14 74 9f 3d
       0.06677579 -0.033155277 -0.04757791 0.07785812
000390 c4 10 c2 bb 3d 83 8f 3d a2 49 2a 3c 85 7b 90 3d
       -0.005922409 0.070074536 0.010393532 0.070548095
0003a0 1d fd 79 3d 22 39 56 3d 78 78 da bd d0 78 33 bd
       0.061032403 0.05230058 -0.10667509 -0.043816388
0003b0 91 ab 1b bc f8 70 02 bd 3b 2a ed bc c1 be 82 bd
       -0.009501354 -0.031846017 -0.028950801 -0.0638404
0003c0 3f 40 23 bc cc 71 78 bb 41 68 45 3d d6 c6 ac bd
       -0.009964048 -0.0037909625 0.048195127 -0.084363624
0003d0 55 c6 b6 bc 9f ce 53 3c 76 53 3f 3d 55 3f b6 3c
       -0.022311369 0.01292768 0.046710454 0.022246996
0003e0 5f bd 2b bd 12 3b 97 bc 61 62 d5 bb 4f c7 1a bd
       -0.041928645 -0.018460784 -0.006511972 -0.03778773
0003f0 5f e2 53 bc 1b 9b c5 bb 9f 1f aa 3d d3 13 d8 3d
       -0.012932389 -0.006030453 0.083068125 0.10550656
