btc_trading_model.pth (torch, 499775 bytes, 9 tensors)

lstm.weight_ih_l0 f4 [400, 6]
00000000: 1634 d23d 5df4 e93d e6e4 26bd a437 4ebd
00000010: 9b20 b8bd 32d6 b2bd 341e 853e 0188 7a3e
00000020: 4191 143e b42c b93d 8713 1ebc 2934 cebc
00000030: b41c f03d c47e 793d 23e6 043e 916a d23d
00000040: 7fe1 a63d a2a5 c33d 8d41 103e 0437 6f3d
00000050: 0d17 d13d 0c7e 773c c5e4 363d 6c80 d93b
00000060: 16eb 993d a29e 113e e1b8 093e ce51 283e
00000070: f618 073c 289c 28bd 21e4 e7bc 6d98 1abd
00000080: be4d 9b3c 5779 053d 9673 c0bc fae0 4fbc
00000090: 15fb cb3d b839 c03d 670d d43b d423 80bd
000000a0: 5a7a b43c 31ab acbc 26ca 4abc 5f54 83bd
000000b0: 195d c13c 86e0 923d 6b98 24be a7ab b8bd
000000c0: 8f5a fcbc 17a4 233c 7a14 983d 683d 0e3d
000000d0: 63e9 b0bd ab3d 37bb a483 0c3e bb9a c23d
000000e0: 2e8a b53d 7ca3 04bd 6755 1fbd f572 c63c
000000f0: f4f9 80bc bb3a d6bd eb15 8bbb 5bf2 a73d
00000100: 6813 c73d 241f 6f3d 99d7 a33b d73c 463c
00000110: b5b9 0cbe 1da6 d3bd 662c c2bd e0a5 0ebe
00000120: 6410 093e ea23 b23d 4feb 0c3e a623 8c3d
00000130: 15ac 6e3d 3686 62bd 7ad0 3f3d 0c6b 923d
00000140: 49cd 893d 293f 85bd 7de1 9cbd 0535 8a3c
00000150: a781 403d 15bb 2f3e 0bda f33d 317b a13b
00000160: bee6 41bd 269e 20bd 03df 243e 1842 fb3d
00000170: d95a 913d 9704 01bc dc06 c3bc b1f3 c5bc
00000180: 35fc 723d 5f3e 883c 8461 813c 3988 7dbd
00000190: 7450 02be 28ce 92bc 5713 013e 27d7 373d
000001a0: 4c06 dc3d db73 f0bc df74 14be 3425 893d
000001b0: 3e2a 9ebd 6519 b3bc d09a 07bd 2c94 6d3b
000001c0: fa84 18bd 55ec 0cbe 1578 bf3d 2dba 5f3e
000001d0: 7bdc fc3d 06b8 a53d 65d4 093e b166 ec3d
000001e0: 5ac8 993d 2ad4 98bb 85b9 643b a560 c43d
000001f0: 1606 eb3d 18da 3a3d 2c02 a23d ac89 a43c
00000200: ad3c 4f3d a87e e8bc 2368 a7bd 5733 4fbe
00000210: fae6 563e 0c7a 7c3e af90 863e 09f2 393e
00000220: 8397 dfbc dfa2 1b3e 2456 563d 68c0 cfbd
00000230: c48b 5abd 6693 17bb 18b0 3fbe 8a92 c0bd
00000240: 1706 98bd 5ae1 21be c89a edbd 6d5f f9bb
00000250: 00a5 90bd 077f 1cbe 4d1c 0e3e c39a 753e
00000260: 8660 033e 0a74 cd3d 6120 a138 a8af 093e
00000270: 5707 023e af1b 90bd 555d 763c 3a6b bfbc
00000280: 68dc be3d 9da8 01bd 1921 0ebe be23 b0bd
00000290: 1331 cf3c 5a41 0ebd e1f7 82bd ed35 2cbe
000002a0: d296 403e 5540 3a3c c32a 593e 3a09 1f3d
000002b0: c802 023e 1ff2 d93c 7323 b03d fe9c 783c
000002c0: 8844 823c c394 0e3c aa10 9a3d a899 e13d
000002d0: dc3f c23d c7be 853d 8fa8 823d f2ce 313e
000002e0: 558d 4f3d cd3d d53d 2f95 543d 49d1 dcbd
000002f0: 2a16 2b3d ae01 eebb 5b5d 34be b046 05be
00000300: eb6d bd3d ba79 a5bd a59f d43d 4338 94bd
00000310: e161 84bd 09b8 e3bb 907c db3d 5ca5 5d3e
00000320: c8ce 423e bde8 9f3d 2566 e8bd 5aeb 0d3e
00000330: f628 eb3d 84cb 103b fbd1 f6bb 2f5d 513c
00000340: 6f55 163d 040e 97bd 3d9e 793d d015 623e
00000350: a5c6 563e dbce fd3d 300e 963d 150e 053e
00000360: f673 c43d d58e 543c ec59 a7bc d7d8 97bc
00000370: 6e8a 1e3d 5c71 1dbd 8342 be3d d684 603e
00000380: 1a20 553e 9510 573e 8811 32bd 5c5a 5fbd
00000390: 989e 233e 84da ba3c dca2 823b 63ae 51bd
000003a0: d45c f73c a387 443d 317a 063e c819 5c3d
000003b0: 28aa 153e e072 c53c 6a14 37bd 164d dd3d
000003c0: c26e 76bd 9828 a9bb 68ab b5bc 3c67 e0bd
000003d0: 5159 dcbd d41b 10bd 48e4 3a3d 7c6a fabc
000003e0: c211 0cbd 10cc 28bd be51 abbc d9b6 cbbb
000003f0: 316d 9a3d 6695 7bbc 7108 803d d3fc 193e
0.10263841 0.11423562 -0.04074564 -0.05034603 -0.08990594 -0.08732261 0.25999606 0.24465944
0.14508535 0.090417296 -0.00964821 -0.025171356 0.11724225 0.06091191 0.12978415 0.10274232
0.08148479 0.09553076 0.14087506 0.058402076 0.10209475 0.0151057355 0.044651765 0.0066376235
0.07515542 0.1422067 0.13449432 0.16437456 0.008245697 -0.041164547 -0.028307023 -0.03774302
0.018957969 0.03258642 -0.023492616 -0.012687916 0.099599995 0.09386009 0.0064713242 -0.06256834
0.022030998 -0.021077724 -0.0123772975 -0.06412577 0.023603963 0.07171731 -0.16073768 -0.09017115
-0.0308049 0.009987853 0.074257806 0.03472653 -0.08638265 -0.002796034 0.13722092 0.09502169
0.08864246 -0.032382473 -0.038899805 0.024224738 -0.015744187 -0.10460421 -0.004244556 0.082005225
0.09720498 0.058379307 0.0050000665 0.012099466 -0.13742717 -0.10334418 -0.094811246 -0.13930464
0.13385159 0.08698256 0.13761638 0.06842737 0.05826958 -0.055303775 0.046829678 0.07149324
0.06728608 -0.065061875 -0.07660196 0.016870985 0.046998646 0.1716121 0.11906823 0.0049280156
-0.047339194 -0.039213322 0.16100697 0.12268466 0.07097406 -0.007874629 -0.023806982 -0.024164053
0.059322555 0.016631303 0.01579357 -0.06189749 -0.12726003 -0.017920569 0.12605034 0.04488292
0.107433885 -0.02935212 -0.14497708 0.06696549 -0.07722901 -0.021862695 -0.033106625 0.0036251647
-0.03723619 -0.13762029 0.09349076 0.21848364 0.12346741 0.0809174 0.13459928 0.11543024
0.07508917 -0.004663964 0.0034900617 0.09588746 0.1147577 0.045618147 0.079105705 0.020085178
0.050594974 -0.028380707 -0.081741594 -0.20234428 0.20986548 0.24655932 0.2628226 0.18158735
-0.027293926 0.15198849 0.052328244 -0.101441205 -0.053355947 -0.0023128628 -0.18719518 -0.0940295
-0.074230365 -0.15808621 -0.11601788 -0.0076102526 -0.07062721 -0.15282832 0.13877983 0.23984818
0.1282979 0.10031898 7.683109e-05 0.13445914 0.12698112 -0.0703653 0.0150369005 -0.02336656
0.09319383 -0.031654943 -0.13879813 -0.08600567 0.025291955 -0.034730293 -0.063949354 -0.16817446
0.18807533 0.011367877 0.21207719 0.03882716 0.12696373 0.02660471 0.086005114 0.015174149
0.015901819 0.00870246 0.0752271 0.11015636 0.094848365 0.065305285 0.06379806 0.173641
0.050671894 0.10412178 0.051900085 -0.107821055 0.041769184 -0.007263384 -0.17613737 -0.13015246
0.09249481 -0.08079858 0.10382012 -0.072372936 -0.064639814 -0.006949429 0.10717118 0.21645111
0.19024193 0.07808063 -0.113476075 0.13859311 0.11482422 0.002209396 -0.007532356 0.012778564
0.03670257 -0.0737572 0.060941923 0.22078633 0.20974214 0.1239297 0.07326925 0.12993653
0.0959243 0.012973507 -0.02042862 -0.018536014 0.038706236 -0.038438186 0.0929003 0.21925673
0.20813027 0.2100242 -0.04347375 -0.054529533 0.15978467 0.022809274 0.0039866995 -0.0511917
0.030195631 0.047980916 0.1313255 0.053735524 0.1461569 0.024102628 -0.044697203 0.108057186
-0.06016422 -0.00516231 -0.02217646 -0.109571904 -0.10759223 -0.03518279 0.045627862 -0.030568354
-0.034196623 -0.041210234 -0.020913001 -0.0062168655 0.07540358 -0.015355444 0.0625161 0.15037851

lstm.weight_hh_l0 f4 [400, 100]
00000000: f1f0 8f3d 95f9 1b3d 1310 a03d 69ab 173d
00000010: 19b0 81bd 98df 85bd 5e7d 38bd 2e1e 1ebc
00000020: 946c 503d b01d 9e3d 650d a2bd 7455 b53d
00000030: 52ac 0a3d e14a 963c b295 62bb d34c 023d
00000040: 1922 033d 4e2c 01be e5be 6fbd 7852 70bd
00000050: b4e3 fc3c 1154 043e 33aa cc3d f2a9 debd
00000060: c4e5 45bd c752 8d3d a46d dcbd 453a 00be
00000070: b5bf e2bb 58b5 f83c aadd e4bd f98b b63d
00000080: 579a 23bd 0c14 5b3d 1bf8 123e 6a02 1fbd
00000090: 3577 e0bd 4bb5 223d 6625 b8bd af19 91bd
000000a0: aa67 f33c 59a5 c73d 7af3 563d 857e f6bd
000000b0: 4dc7 bebd 1410 8ebc 4561 b53a bff6 df3c
000000c0: 590b 553c 1351 dcbc ed66 63bd f80f 8ebd
000000d0: d6de 5c3d 4d04 d5bd 4d75 f63c 67bb 563d
000000e0: 8a8b 013e 35f8 fabd 0de8 27bd 8d5b e1bd
000000f0: e2d5 d2bd e02e cabc 3f68 1f3e 6fa3 0ebe
00000100: 6251 51bd 2cb0 48bd 3e02 173d 5a5c e33c
00000110: 0f78 c43d 9f67 1f3d 16fd 25bd e916 92b9
00000120: d827 07bd 6514 e53b cb18 cf3d bf86 ad3b
00000130: d6c5 47bc 3348 9fbd b3c4 94bd 93f9 ab3d
00000140: e5e5 ee3d ea7c f33d 350c 1dbe 714f 073e
00000150: 70c4 983d 8905 2abd bcb7 b63d 5808 0ebd
00000160: ae88 01be 735c b9bb 9c84 6dbd 981d 2cbe
00000170: a0a6 f63d 0067 043d 6369 8d3b eff8 1c3b
00000180: b1ae 3e3b 7c2c cb3c a28d 8f3d 566d 8d3b
00000190: fb5d 56bc 2252 963d 0822 97bd f8ad 003e
000001a0: 3d9d f9bb 00a6 953d 4f77 403d 8fd8 71bd
000001b0: c516 80bd 0893 b03d d0c2 e5bd c667 9abb
000001c0: c785 19bd 5ec8 dbbd 91e2 2dbc 69e8 e4bd
000001d0: da44 beba e042 d3bc 4181 83bb 9732 1abc
000001e0: 1244 d53d a5fe 613d 52ec 9bbd 950d 383e
000001f0: 681f 6bbb aaeb ab3c a0d3 37be ccf0 823d
00000200: 7649 50bd 073f 22be cb76 b73d 0302 48bd
00000210: 5e2e e0bc d707 c9bd 68ad 013e cd5e a9bd
00000220: 9daa 52be 128b aebd 05f7 553d ffbf dcbd
00000230: 5bf0 323e 7ad1 a53c 26c8 12be a6c9 a43c
00000240: 8c4f 553d e369 03be 226a ad3d 7bb3 e4bc
00000250: ba6c 43be 93c9 0fbe c452 363d c485 b83d
00000260: 9e1b 283c d243 aa3d 9aa9 08be 691c 0b3e
00000270: dd37 ecbd 4217 1a3e 2e89 9fbc ec52 a9bc
00000280: 460b 1d3e 3322 1bbe 21d3 343c 5a86 e63b
00000290: 1910 143e feb8 c53d d604 8a3d ad9a a83d
000002a0: 9dc3 233d 5569 efbd f092 cb3d fc7f 9c3c
000002b0: 4b79 b1bd 1f41 633d a427 bb3d fb63 183e
000002c0: ab1b 1abe c83d af3d 92db d1bd 7e35 8bbd
000002d0: ae13 683d c185 e6bb 5f68 093e 5bd1 83bd
000002e0: eda7 a63d d6d5 d23c bff1 313e 43fd 11be
000002f0: 6651 b7bc b73c 3a3e 1a05 80bd 4805 52bc
00000300: d911 213d 4b05 ae3d f2e1 943d f239 c2bd
00000310: 4355 fbbb e540 703d e4f3 f23d e078 00bd
00000320: d5d9 e6bd e8b7 79bc e92b 87bd 117d 383e
00000330: b561 8c3d eeb8 83bd 0b7f 8f3d 6456 8cbd
00000340: b98c 9f3d 1a6d 52bc 2830 d9bc 838a e03d
00000350: c474 8ebc 5ade ac3c 5d60 79bd 1d30 a73c
00000360: 8999 d43c 26e3 ba3d 51fe 5b3d 8de9 98bd
00000370: 44f6 40bd 45d7 10bd f302 07be b149 0b3e
00000380: 2d51 4fbc ed35 0bbe d8dd e7bc abcd 13bd
00000390: 3f71 8c3d e97e 8abd a83e ad3d c189 e13c
000003a0: 1a53 8fbc 35f2 d9bc d44c 353e 627f 88bd
000003b0: 6333 1d3d ad8f ffbd ca1e 023c fabd b53d
000003c0: 2381 043e fb27 fdb9 6286 103d 31e8 4f3d
000003d0: 286f 163c 38ce c5bc 1a77 9c3d f6a6 21bc
000003e0: 2e78 9cbd ccb9 45bd de77 00be cdf7 1abe
000003f0: d7c5 f63c 7ab2 443d a8bb e03d da75 2a3d
0.07028378 0.038079817 0.07815566 0.037028704 -0.06332416 -0.06536788 -0.045041434 -0.00965075
0.0508848 0.07720506 -0.07912711 0.088541895 0.033855744 0.018346252 -0.0034574089 0.031811547
0.03201494 -0.12614557 -0.05853166 -0.0586724 0.030870296 0.12922694 0.099934004 -0.10872258
-0.048314825 0.06900554 -0.107631 -0.12522228 -0.006919826 0.030359909 -0.111750916 0.089134164
-0.03994211 0.053485915 0.14352457 -0.03882066 -0.10960237 0.039723676 -0.08991508 -0.07084977
0.029712517 0.097483344 0.05247829 -0.120358504 -0.09315357 -0.017341651 0.0013838193 0.027339337
0.013003194 -0.026894128 -0.05551808 -0.069366395 0.05392345 -0.10401211 0.03008523 0.052424815
0.12650886 -0.12254373 -0.040992785 -0.1100379 -0.10294701 -0.024680555 0.1556711 -0.13929532
-0.051103003 -0.048996136 0.036867373 0.027753998 0.09593212 0.03891718 -0.040524565 -0.0002786436
-0.032996982 0.0069909566 0.10112151 0.005295604 -0.012193164 -0.07777443 -0.0726408 0.08397212
0.11664943 0.1188906 -0.15336688 0.13213898 0.074593425 -0.041509185 0.08921763 -0.034675926
-0.12649795 -0.0056567728 -0.057987794 -0.16808164 0.120435 0.03232479 0.0043155416 0.0023952087
0.0029095823 0.024801485 0.07009436 0.0043160124 -0.01308393 0.07339884 -0.07379538 0.12566364
-0.007617621 0.073070526 0.04698878 -0.059044417 -0.06254343 0.08621794 -0.11218798 -0.004712078
-0.037481096 -0.107315764 -0.0106131 -0.11177141 -0.0014516369 -0.025788724 -0.004013211 -0.009411476
0.10413374 0.05517449 -0.07613434 0.17973931 -0.0035876874 0.020986397 -0.17951822 0.063935846
-0.050851308 -0.15844356 0.08958205 -0.048830044 -0.02736586 -0.098159485 0.12663805 -0.08270035
-0.20572896 -0.08522619 0.05223753 -0.10778808 0.17474501 0.020241488 -0.14334163 0.020115685
0.052077815 -0.12833361 0.08467509 -0.027917614 -0.19084445 -0.14041738 0.044512525 0.09009889
0.010260491 0.08313717 -0.13345948 0.13585056 -0.115340926 0.15047935 -0.019474592 -0.020669423
0.15336332 -0.15149765 0.011036665 0.007035059 0.14459266 0.09654425 0.06739204 0.08232627
0.039981473 -0.11690012 0.099401355 0.019103996 -0.08665713 0.055482026 0.0913842 0.1488189
-0.15049617 0.08556706 -0.10246958 -0.06797312 0.056659393 -0.0070349877 0.1341872 -0.06436416
0.08137498 0.02573673 0.17377375 -0.14256768 -0.022377681 0.18187223 -0.06250973 -0.012818642
0.03932366 0.08497103 0.07269658 -0.094837084 -0.007670076 0.05865564 0.11862925 -0.031365275
-0.11272017 -0.015241601 -0.06600172 0.18016459 0.06854574 -0.06431757 0.070066534 -0.06852415
0.077905126 -0.012843395 -0.02651222 0.10963919 -0.017389663 0.02110212 -0.060882915 0.020408684
0.025952118 0.091253564 0.053709332 -0.07466421 -0.047109857 -0.035361547 -0.13184719 0.1360233
-0.012653631 -0.1359479 -0.028304026 -0.036084812 0.068575375 -0.067624874 0.08459216 0.027531506
-0.01749568 -0.026604751 0.17705089 -0.06664921 0.038379084 -0.12478576 0.007941911 0.08874126
0.12939887 -0.00048285708 0.035284407 0.050758544 0.009181775 -0.024146184 0.07639904 -0.009866467
-0.0764011 -0.048272893 -0.12545726 -0.15133591 0.030123634 0.04802177 0.109732926 0.0416163

lstm.bias_ih_l0 f4 [400]
00000000: 280b 57bd 5c20 db3d e778 813c f93f 033e
00000010: 4c42 d43d e847 313d 714e 333d 6327 86bc
00000020: e28d c13d 3f3b 04bc 710c 023c d8ee a73d
00000030: 5330 90bc 857d a03c 2097 853d dd9d 1b3e
00000040: 7cf0 67bd 3736 9fbd 2705 063e c173 b53d
00000050: b116 1a3c a01f 6e3d ca96 063e 2543 743d
00000060: 8273 04be 8e40 a3bc 027f 9ebd 8f69 0cbc
00000070: 3481 793d f15a 533c bc1a be3d 1e17 1a3d
00000080: f6d5 ce3c a881 b33d 87f2 1c3d ae25 143d
00000090: e769 5cbc d495 68bc 7219 f5bc 0601 003e
000000a0: 8ce9 66bb 7543 77bd 4404 d13d d04e 603d
000000b0: 3475 26bd e0fa fbbc 19c0 823d aaa5 2fbd
000000c0: ecb3 0c3e 102d edbd 7286 d73d d8d3 cfbd
000000d0: 2e60 b13d 12ef bebc 2a7f 123c 19fe dcbd
000000e0: ee90 f5bc 0570 95bd c818 20bd 4fdf 093e
000000f0: acc0 fd3d c46d 723d 3f46 073d e553 013e
00000100: 7fb6 fbbc 77ef de3c c2f8 ed3d 87e7 09bd
00000110: 7ff1 9fbb 0926 553d 4b62 9fbd 128f c8bd
00000120: d88c 8a3c 8f73 f83c b7ae bcbd c35d 3c3e
00000130: bc6b 36be a672 463d ba61 09bd 1a9e b93d
00000140: 26d6 403c b1ef 2fbd f689 b73d d5af 1dbd
00000150: e25c 2cbe f357 56bd 4bec 33bd 323d 9cbd
00000160: 3bb8 273d 95c6 b1bc 4549 85bd 0731 e4bd
00000170: 6d7e 823d 0150 593d d617 a6bc dc5b 233e
00000180: 0513 ee3c 6c67 16be ffb4 423d f9b8 abbd
00000190: e6cc 9d3d 41df 94bb 107b cb3d cc13 ad3c
000001a0: 7b2c 2ebe 1bd4 dcbd 55d8 bebc 6815 e0bc
000001b0: 4d47 1f3c 712d ef3c 7779 70bd 45ed e3ba
000001c0: e613 843b 63ee 88bd 45c4 25be 037a 7a3d
000001d0: 26ee ddbd 3e01 a4bd 49f5 c5bb 0b9a 8b3d
000001e0: 3dca 623c 33e0 17be 44f3 e5bd 010c ae3c
000001f0: 4c2d 55be c443 85bd 4b25 48bd c88e 67be
00000200: fb03 b9bd 1881 3e3d a34f fb3d d23b 20be
00000210: 9b8b 9bbd 73f6 ec3d 47e9 15bd eb51 af3d
00000220: 0e63 8e3d 6498 d93c 1fab a7bd 72f7 e7bd
00000230: d15f ec3a e533 1f3d 0ae2 6ebd e39d 6fbd
00000240: 3709 00bd a1ce e8bd 5512 ce3c b25d 3bbe
00000250: f3bf 963d 7503 953d 634a c8bd 42f1 e5bc
00000260: e1ff 6d3d 280f cfbc 94d5 c43d 5379 22be
00000270: 7ff0 83bd 26ec 893d 1706 debd 2412 0a3e
00000280: 2e1a 3e3c 462e 9bbd 24ef 24be be03 3fbd
00000290: f3fb b9bb ae68 0abe e33f cb3d f3c5 963c
000002a0: c4f0 503d 4a36 043d 13b8 3abe ec7c c73c
000002b0: 87b0 30bd cfff c6bd 44e2 82bd 6ba1 3dbd
000002c0: 3153 0fbd 267e ca3c be4a 2b3c 69dd 14be
000002d0: a1d8 21be d476 83bb c943 573c 0727 dabd
000002e0: 614d 29bd c54a a9bc b5e3 f73c bc1f 073c
000002f0: 9bb0 2c3d 4b1c a03d 11c0 09be ed24 04be
00000300: 8408 a13c 90af b8bd 0c47 dabc 0d06 b9bc
00000310: c56c 9b3c 3275 0bbe 75a6 183d ed2c b5bd
00000320: 2494 83bd 61d4 093c 5684 ec3d 6701 b3bd
00000330: e967 ad3d f081 4bbd ddcd b1bc e31f a63d
00000340: 087d a63c 670d 143d a3cf ae3d 4376 033d
00000350: 7aca 783d 09b4 953c 1d2b 623d c6b1 5abd
00000360: ce0f 0bbe f700 a9bc 40e4 80bd 2f55 89bd
00000370: 2fbf 2fbd 84fe 7c3d 49da 1c3d 5ae4 35bd
00000380: 6f3d b0bc 257f dc3c c981 fabc 1990 42bd
00000390: 7466 51bd 3033 f23c c99a b0bd d46d 153d
000003a0: 2b2c 2cbd cad0 db3c 43db 34bc cbe5 a43d
000003b0: d7e4 e7bc c947 133d 8608 77bd d8e3 1d3c
000003c0: 8dda 5fbd 272e b1bc afb9 6f3c d3f7 c1bb
000003d0: b05d 5cbd bc0b 3ebd 16e9 393b ef0c 4a3d
000003e0: bacb 933d cabc e4bc 71a7 bc3c fdde 78bc
000003f0: 5a44 febc c3cd d03c 3a0f 9dbd d3da 103d
-0.052500874 0.106995314 0.015804721 0.12817372 0.103642076 0.043281466 0.04377598 -0.016376203
0.0945089 -0.008070766 0.007937537 0.08199853 -0.017601168 0.019591102 0.065229654 0.15196939
-0.05662583 -0.077740125 0.13087903 0.08859969 0.009404824 0.05813563 0.13143459 0.059634347
-0.12934688 -0.019928243 -0.077390686 -0.008570089 0.060914233 0.0129001 0.09282443 0.037619703
0.025248509 0.08764964 0.03831723 0.036168747 -0.013452983 -0.014195878 -0.02991936 0.1250039
-0.003523442 -0.060367066 0.10205892 0.05476266 -0.040639117 -0.030759275 0.06384296 -0.0428826
0.1374051 -0.115808606 0.1052369 -0.10147828 0.08660923 -0.023307357 0.008941451 -0.10790653
-0.029976334 -0.07296757 -0.039086133 0.13464092 0.12390265 0.059186712 0.033025976 0.1262966
-0.03072667 0.027213795 0.116197124 -0.033668067 -0.0048810835 0.052038226 -0.0778242 -0.097929135
0.016912863 0.03032854 -0.09213012 0.18395142 -0.17814535 0.04844918 -0.033540465 0.090633586
0.011769807 -0.042953197 0.08961861 -0.038497765 -0.16832307 -0.05232997 -0.04392652 -0.076288596
0.04094718 -0.021701137 -0.06508116 -0.11142164 0.0637177 0.053054813 -0.020275038 0.1595301
0.029061804 -0.1468789 0.047535893 -0.0838489 0.07705097 -0.0045432155 0.09935582 0.021127604
-0.17009155 -0.107826434 -0.023296515 -0.027353957 0.009721589 0.029196473 -0.058709588 -0.0017389437
0.0040306924 -0.06686094 -0.16188152 0.061151516 -0.10836439 -0.080080494 -0.006041203 0.06816491
0.013842163 -0.14831619 -0.1122804 0.021245958 -0.2081806 -0.06507066 -0.04886369 -0.2261306
-0.09033962 0.046509832 0.12271049 -0.1564782 -0.07594987 0.11570444 -0.036599424 0.085605465
0.06952487 0.026561923 -0.08186936 -0.11326493 0.0018033927 0.03886785 -0.058321036 -0.058500182
-0.031258788 -0.11367536 0.025155226 -0.1829746 0.0736083 0.0727605 -0.09779813 -0.028069142
0.058105353 -0.025275782 0.09611049 -0.15866594 -0.06442355 0.06734495 -0.10841005 0.13483483
0.011602921 -0.07577185 -0.1610685 -0.04663443 -0.0056757866 -0.13516495 0.09924295 0.018404936
0.051010862 0.032278337 -0.18234281 0.02435156 -0.0431371 -0.0971676 -0.06390813 -0.04629652
-0.034991447 0.024718355 0.010454832 -0.14537586 -0.15805294 -0.004011968 0.01313872 -0.10651975
-0.04133356 -0.020665536 0.030259946 0.008247312 0.04216061 0.078178965 -0.13452174 -0.12904711
0.01965738 -0.09017861 -0.026645206 -0.022585893 0.018972764 -0.13618925 0.03726812 -0.088464595
-0.0642474 0.0084124515 0.115486786 -0.08740502 0.08467085 -0.049684465 -0.021704609 0.08111551
0.020323291 0.036145594 0.08535697 0.032095205 0.06073997 0.018274324 0.055216897 -0.053392194
-0.13580248 -0.020630343 -0.06293535 -0.067057006 -0.042906936 0.061766163 0.03829411 -0.044407226
-0.021513669 0.026916096 -0.030579465 -0.047500703 -0.051123098 0.029565424 -0.08623273 0.036481693
-0.04203431 0.026832957 -0.011038604 0.08051642 -0.028307362 0.03595713 -0.060310863 0.009636842
-0.054651786 -0.021628452 0.014631673 -0.0059194355 -0.053800285 -0.04639791 0.002836769 0.04932874
0.07216592 -0.027922053 0.023029061 -0.015189883 -0.031038452 0.02548874 -0.0766892 0.035364937

lstm.bias_hh_l0 f4 [400]
00000000: 2935 513d 8d1c 0e3c c7a8 133c 5427 103d
00000010: 0f8a 0cbc 2de8 943b 865c ce3d a5b9 ba3d
00000020: d0c9 19bd 1531 b9bd e32d 173d 504b dcbd
00000030: aac9 373d 7cb8 c03c 8ec8 e33d 0d0e 933c
00000040: 3395 d13c a2a5 edbd e620 6f3d acaf 073d
00000050: 6770 223d 52f6 2ebd 85aa b23d e250 dc3c
00000060: c7ec 34b8 67c4 65bd eee3 c33d 49d4 d1bd
00000070: 3f5b 0ebd f233 683d a7f8 0bbd f8dc 18be
00000080: 0de2 bdbd 45a1 63bc dd09 513d f61d 983d
00000090: 230b 073e bc59 093e edbe 033e 7232 2bbd
000000a0: 3a21 c33d 4f11 7cbd b6df 6c3d 42ca 5a3d
000000b0: 1a54 2bbd 6155 26bd 3121 923d 76ac 0abd
000000c0: 5d05 033e 73f9 56bd 62d1 023e b02c eabd
000000d0: 3f18 cf3d f104 b53b bd0f 953b 01bb 0dbe
000000e0: 160e 4b3d 4a16 8c3c a20d 11bd cb02 c13d
000000f0: 06b3 46bd a181 923d 2179 8d3d 87e0 7e3d
00000100: a40d 14bd 805a 973b 87e0 e23d f733 2e3c
00000110: 7344 ccbd 8228 a03d 5a69 213b 0c4b 7d3d
00000120: 611f de3d 9bb1 1bbd 1f40 0dbe db66 edbb
00000130: a10f 12be eab2 1fbc 2bb4 7bbd da44 71bd
00000140: 7417 333d 704a 09bd 6a35 ec3d 3c2e 193d
00000150: 9c1e 4ebe 8002 07be d424 80bb 74e6 cfbd
00000160: 4c85 79bd d87e a63c 66f1 01bd 27a8 9e3c
00000170: e2dd 803d 5b4f 0f3d 5aec 0d3e eb3b 393e
00000180: 0b6a 833d 435d 86bd 60d2 833c 1816 0f3d
00000190: df63 8abd 00a1 a23d 28d6 8d3c 3b2a 95bd
000001a0: a453 03be 9a66 a2bd 56ef 84bd fae7 253d
000001b0: 2823 e83b 1911 e2bd 5606 d8bd c2f5 20bd
000001c0: a2ca dbbd 6b21 00bd 50ee b7bd 9c2f 91bd
000001d0: cc69 2d3b ca05 4cbd 9e85 07bd 789a 223d
000001e0: 7509 1ebe 12d8 19be f780 86bd bfa8 09be
000001f0: 75ec 15be e351 1a3d 56af ac3d 425b 11be
00000200: 3509 5fbe 7d0f 38bd de4e 483d 21e4 8fbd
00000210: 5231 e73b bb63 2f3d b805 b53c 25df ef3a
00000220: 1d5c 823d c8af 45bd bb61 bdba fc0d 05be
00000230: 089d cabd 8d8f 803c afaa 16bd f265 03bb
00000240: 10c5 56bd 9b99 a83d 7c21 b7bd 1f25 46be
00000250: e0cf a5bc 2189 d93c f277 1bbe 518e 1bbe
00000260: 473d ca3c 07eb 97bd 6d05 db3d d5a1 51be
00000270: 4770 673d 3d49 aa3c ef3c f4bd cea9 923d
00000280: 90c4 7a3d b534 31bd 180c 95bd 06d0 513d
00000290: 5926 a9bb a05b 9b3c 0304 2abd 2eed 48bd
000002a0: 2899 f03c 954f f23a 9e8d 43be cf74 9bbb
000002b0: c2de de3b 7764 b9bd 71ba 08be 7dc5 bc3c
000002c0: a09f 56bc 525c 033c 8d24 99bc 95e6 f7bc
000002d0: e65c d0bd 3e5d ac3b 939c cc3d ba08 02be
000002e0: e11a 24be 2406 e7bd 766e 61bd d3ed 33bc
000002f0: ddc7 94bc 3f85 593c ae58 fa3c 5746 69bd
00000300: ed96 90bd 2859 9bbd 4587 b1bc 5dcc 61bd
00000310: 093a 963d d694 c0bd 6bd0 a8bd 2f61 d0bd
00000320: b6d1 a63d de19 bbbd 4bf7 65bd 7615 5f3d
00000330: 934e abbc 8970 32bd 8713 8cbd fa8b dc3c
00000340: 2e94 da3d 8e9a 87bd 65ec f1bc 7e8c c93c
00000350: 3ede 88bc 7da3 ec3b 08c9 163d 4c1d c53d
00000360: 47d0 6d3d 17d0 c43c 9398 603b 26d8 7fbc
00000370: 79ab 583b 9102 663d a5e5 ca3c 1791 88bd
00000380: 2d14 f3bc 3f4e 803d 2e0b ac3d 253e 903b
00000390: 4e8d 003d f561 933c abdb 5f3d 6c25 683d
000003a0: d89f 093d 3817 033c 3083 a63d dbb4 d7bb
000003b0: 7a62 ac3d 240e 6d3c 76c2 c3bc eb92 0b3c
000003c0: e1b1 b0bd f9e0 ef3c be9a 973c c19d 63bd
000003d0: 5365 9abb 1f41 bb3d 62cd e43c a4d2 b9bd
000003e0: ed1c 493d 1b31 433d 2fd5 6f3c 0d06 f1bc
000003f0: 048f 033d 0bf2 21bd 4b76 db3d a6ad 0fbd
0.051076088 0.008673799 0.009012408 0.035193756 -0.008577838 0.004544279 0.10076241 0.0911744
-0.03754598 -0.09042565 0.036908995 -0.10756552 0.044870056 0.023525469 0.11122237 0.017951036
0.025583839 -0.116038576 0.058380984 0.033126518 0.039657976 -0.042715378 0.0872393 0.026894037
-4.313586e-05 -0.056095507 0.095649585 -0.10245568 -0.034754988 0.056690164 -0.03417268 -0.14928043
-0.092716314 -0.01389343 0.051034797 0.074275896 0.13187842 0.13413137 0.12865801 -0.041796155
0.09527822 -0.061539944 0.057830535 0.053415544 -0.041828252 -0.040608767 0.07135237 -0.033855878
0.12795015 -0.052483987 0.12775186 -0.11434305 0.101120465 0.0055242707 0.0045489953 -0.13840868
0.04957398 0.017100472 -0.035413392 0.09424361 -0.048510574 0.07153631 0.06907869 0.062225845
-0.03614582 0.0046189427 0.110779814 0.010632507 -0.09973993 0.07820226 0.0024629445 0.06183915
0.10845829 -0.038011175 -0.13793992 -0.0072449273 -0.14263774 -0.009747246 -0.06145112 -0.058903553
0.04372354 -0.033518255 0.115336254 0.03739761 -0.20128864 -0.13184547 -0.0039106403 -0.10151377
-0.060918137 0.020324156 -0.031724356 0.01936729 0.06292321 0.03498779 0.13859692 0.18089263
0.064167105 -0.06560757 0.016091526 0.03493318 -0.0675733 0.079408646 0.017314032 -0.072834454
-0.12824875 -0.07929726 -0.06490962 0.040504433 0.007084269 -0.11038417 -0.105480835 -0.039296873
-0.107320085 -0.03128187 -0.089810014 -0.07089159 0.0026460765 -0.04981021 -0.03308641 0.039698094
-0.15433295 -0.1502383 -0.06567567 -0.13443278 -0.14640982 0.03767575 0.0843188 -0.14194968
-0.21780856 -0.044936646 0.04890334 -0.07025934 0.00705544 0.04281972 0.022097453 0.0018300755
0.063652255 -0.04826334 -0.0014448682 -0.12993616 -0.098932326 0.01569345 -0.03678387 -0.0020049778
-0.052434027 0.08232423 -0.089419335 -0.19350098 -0.020240724 0.026554646 -0.15182474 -0.15191008
0.024687422 -0.07417875 0.10694394 -0.2047189 0.05650356 0.020786876 -0.11925685 0.07161294
0.061222613 -0.043263156 -0.07277697 0.051223777 -0.005162042 0.018964589 -0.041507732 -0.049054317
0.029369906 0.0018486852 -0.19096991 -0.0047441493 0.006801457 -0.09052365 -0.13352372 0.023043389
-0.013099581 0.008017616 -0.018694187 -0.030261317 -0.10173969 0.005260139 0.09990802 -0.12698641
-0.16025878 -0.11280468 -0.055036984 -0.010981995 -0.018161708 0.013276397 0.030559864 -0.056951847
-0.07060037 -0.075853646 -0.021670947 -0.055126537 0.07335288 -0.09403388 -0.082428776 -0.10174786
0.08145468 -0.09135793 -0.05614404 0.054463826 -0.02091149 -0.043564353 -0.06839662 0.026922215
0.10672794 -0.06621276 -0.029531667 0.024603125 -0.016707536 0.0072216378 0.036812812 0.096247286
0.058059957 0.024025006 0.0034270629 -0.015615499 0.003306119 0.05615479 0.024767706 -0.06668299
-0.029672706 0.06264924 0.0840057 0.0044019395 0.03138476 0.017991045 0.05465285 0.056676313
0.033599705 0.008001141 0.08130491 -0.006582839 0.084172204 0.014468703 -0.023896437 0.008518915
-0.08627678 0.02928208 0.018506404 -0.055570368 -0.004711786 0.0914328 0.027929965 -0.0907338
0.04909985 0.047654252 0.014638229 -0.02942183 0.032118812 -0.03953747 0.10715922 -0.035077713

lstm.weight_ih_l1 f4 [400, 100]
00000000: b0f0 4dbc 5bfd 30bd 797a 55bd 6d26 c63d
00000010: 6568 11bb dfa2 09bd 8258 f93d 085c e53c
00000020: 394a e13c 8188 653c 71b6 c2bc 923e b5bd
00000030: 86e5 e03b b497 793c ee21 3c3d ca39 67bd
00000040: e62c bcbd c08a 98bd d19e 1d3e f3e4 80bd
00000050: 2b42 9739 c356 5fbd 20c4 0ab8 0dd3 8e3d
00000060: 8d81 90bc d1fa 233d a542 3c3d d189 d8bb
00000070: b981 64bd 58f5 03be d315 a33d e378 2fbc
00000080: 90af 223d e75d c53d 51d3 49bd fbab 05bc
00000090: 149d 35bd 6123 8f3d dd6f 75bc 22af 91bd
000000a0: c3f9 aabc 4433 a6bd 6879 23bd b962 d7bd
000000b0: 8c12 943d e21e c8ba ea61 453c cb81 ac3d
000000c0: 020f e43d f8a4 96bd c269 d73b 7e30 ff3b
000000d0: a4c8 573b f992 333d 23a5 d4bd d72c 7f3d
000000e0: f78e fdbc c0db 54bc 6cd8 8e3a 4c50 81ba
000000f0: 278b e53c a138 8e3d 2f68 093d 111b 8cbc
00000100: 58f8 8abc f27d 8f3d cfbc 95bb 1270 3ebd
00000110: ceec 843d 2e3a ab3d 1094 a23d 9d6f a2bd
00000120: 0edd 7bbc b5e1 9b3c d269 8bbb 1fc8 893b
00000130: c9dc a93d dd8f 24bc db84 353d 743e 563d
00000140: d59c c13d c5c6 37bd a1cf 8fbd f236 8a3d
00000150: b624 31bd dcc7 53bd c698 cd3d d748 a4bd
00000160: 82c0 99bd 898d e73d 15d9 063d 6e5a 38bd
00000170: 1228 b33c 5170 70bd af8f 03bc 4af2 e0bd
00000180: f6ce 7abc 5eea 9abd 1b81 f13c 4497 b0bc
00000190: 8535 82bd 1964 573e d6e4 6cbe 8c58 7f3e
000001a0: 1855 0fbe 7781 c73d d314 603e 67de 70be
000001b0: aba3 dbbd 3870 213e 921f b9bd ad7a bcbc
000001c0: 1af8 5abe f76c 6ebd 92e0 65be fd62 0fbe
000001d0: d54f 253e ffad 213e d4a2 2e3d bb6b 493e
000001e0: 8f85 303e f55e 84be 05a8 3dbe fdd2 173d
000001f0: 1b73 e23d 9dd5 97bd 76f2 bf3b 7d23 27bd
00000200: e856 983d 1ad7 80bc e47b 1e3e aa61 c6bd
00000210: 07bf 17be bf9a 07be a953 12be b2c4 b0bd
00000220: cd1e acbd aff7 fdbd ab40 373e afea 7ebe
00000230: 373e 383e 3a06 423d 2de2 96bc 23b7 1c3e
00000240: 8cbe 013e 4a82 7ebd f07e 9fbd 1951 a53c
00000250: 90aa 08be cc41 fc3d b0c4 24be 6351 6a3e
00000260: 742d 453e a680 463e a538 c2bd bdc3 34bd
00000270: fc74 0cbd 1a92 d93d fb25 273e 6447 f23d
00000280: 202c b23d ea4f cfbd ff7d cdbd e0f5 623d
00000290: 7020 d33d 8127 223e 1ae7 e03d 8547 38bc
000002a0: ea4a bcbc d118 adbd 93c8 1cbe 52e1 043d
000002b0: 5a37 41be 8244 fd3d ef15 98bd 892b f63d
000002c0: c311 0abe c933 ce3c 72b1 b23c 92e7 10be
000002d0: cd73 27be 9a33 07be 579f ad3d 6d91 4bbe
000002e0: a660 723d ec87 a23d 683c e43d 3bd1 38bd
000002f0: cdfd 683e ee2f 9ebc 453e 27bd 94bf bf3c
00000300: eba3 613d c3f3 543e 9416 da3d 92fe 50be
00000310: 1f0d 44bb 4b13 2fbc c9d7 483e 3678 4ebe
00000320: 9508 adbc 6439 bebd 39d1 bf3d 985a 64bd
00000330: 350a e53b 0444 c03d 4e9b 9cbc 1e46 fa3d
00000340: 404e b83c 594e 8e3d 5dd2 a3bc 6f9d 263d
00000350: 1280 803d 660f a3bc 573f 10bd 35fc 4dbd
00000360: ece4 88bd 9a85 9fbd 7682 a0bd fcf5 bb3a
00000370: 177e f6bd 7ff8 363d d141 75bb 5ee4 493d
00000380: a561 64bd 07e2 df3d 0328 c4bb 1e04 ee3c
00000390: 6935 693d 6ea1 a7bb add6 ae3d e09e 0d3e
000003a0: 5022 bb3d 8aaa 66bd b10d 023c cf3f abbd
000003b0: 092c fdbd c4a8 0ebc d1b8 8dbd 3217 593d
000003c0: 4d43 4dbd c9c1 9dbc 0884 19be 0356 7bbd
000003d0: 50b9 363d afda 82bd 2621 de3d be78 bc3c
000003e0: 90b5 813d 4b95 95bc 5832 8a3d e33c 3abc
000003f0: 42b9 82bd 489a d73c a4d3 153d ff21 933d
-0.012569591 -0.04321037 -0.052118752 0.09675298 -0.0022187468 -0.03360259 0.12175085 0.027997985
0.027501212 0.014009596 -0.023768635 -0.08849825 0.006863299 0.015233923 0.045930795 -0.056451596
-0.09188251 -0.074483395 0.15392615 -0.062936686 0.00028850263 -0.0545261 -3.308442e-05 0.069738485
-0.0176399 0.04003412 0.045961995 -0.006608226 -0.055787776 -0.1288656 0.07963147 -0.010709974
0.03971821 0.09637051 -0.049273793 -0.008158679 -0.044339254 0.0698917 -0.014980284 -0.07113482
-0.020871049 -0.08115247 -0.039910704 -0.10516877 0.072301 -0.0015267993 0.01204727 0.084231935
0.11135675 -0.07355684 0.0065738866 0.007787763 0.0032925988 0.043841336 -0.1038306 0.062298622
-0.03095196 -0.012991846 0.0010898239 -0.0009865849 0.028020455 0.06944395 0.033546623 -0.01710275
-0.016964123 0.07006444 -0.004569627 -0.046493597 0.064904794 0.08360706 0.07938397 -0.07931445
-0.015372528 0.019028524 -0.004254558 0.0042047645 0.082940646 -0.010044065 0.044316154 0.052305654
0.094537415 -0.044867296 -0.07022024 0.06748761 -0.0432479 -0.051704273 0.10038905 -0.080217056
-0.07507421 0.113062926 0.03292187 -0.045008115 0.021869693 -0.058700863 -0.008029862 -0.10983713
-0.015308132 -0.07564233 0.029480508 -0.021556504 -0.06357864 0.21034278 -0.23134169 0.24936122
-0.13997304 0.0974149 0.21882944 -0.2352234 -0.107245766 0.15765464 -0.09039225 -0.023007715
-0.21383706 -0.058209386 -0.22448948 -0.14002605 0.16143735 0.1578903 0.042635754 0.19670002
0.17238449 -0.25853696 -0.18521126 0.03706645 0.11057111 -0.074137904 0.005857761 -0.04080533
0.07438451 -0.015727568 0.15476948 -0.09686597 -0.14818965 -0.13242625 -0.14289726 -0.08631267
-0.08404312 -0.124007575 0.17895763 -0.24894212 0.17992483 0.04736922 -0.018418396 0.15304236
0.12670344 -0.062135972 -0.07787883 0.020180272 -0.13346314 0.12317237 -0.16090655 0.22882609
0.1925562 0.19385013 -0.0948346 -0.044131983 -0.034291252 0.1062357 0.16323082 0.11830023
0.086998224 -0.10122664 -0.100337975 0.055410266 0.10308921 0.15835382 0.10981579 -0.01124752
-0.02298494 -0.08451999 -0.15310888 0.032441445 -0.18868771 0.123665825 -0.074260585 0.120200224
-0.13483338 0.025171177 0.021813128 -0.14150837 -0.16352768 -0.13203278 0.08477657 -0.19879694
0.059174202 0.07936081 0.11144334 -0.045121413 0.22753067 -0.019309964 -0.04083087 0.023406781
0.055087965 0.20796113 0.10648838 -0.20409611 -0.0029915047 -0.010685752 0.19613566 -0.20163044
-0.021122256 -0.0928829 0.09366078 -0.05575046 0.006989742 0.09387973 -0.019117024 0.12220405
0.02249825 0.069485374 -0.01999777 0.040677484 0.062744275 -0.019904803 -0.035216656 -0.05028935
-0.066842884 -0.07789154 -0.078373834 0.0014340277 -0.120357685 0.044670578 -0.0037423263 0.049290054
-0.055757184 0.10931783 -0.005986215 0.029054698 0.0569357 -0.0051156795 0.0853704 0.13830137
0.09137404 -0.056314982 0.007937835 -0.0836178 -0.12361915 -0.008707229 -0.069200166 0.053000636
-0.05011301 -0.019257443 -0.14991772 -0.061361324 0.04461032 -0.06389367 0.10846166 0.023006793
0.063334584 -0.018259665 0.067478836 -0.011367056 -0.063829914 0.026318684 0.03657879 0.071842186

lstm.weight_hh_l1 f4 [400, 100]
00000000: 7e35 74bd 5d3c cdbd 9c03 cf3c 7645 9d3d
00000010: d793 fbbd 9891 7ebd e73b 533d 4fb9 d73d
00000020: 1c5f db3d 98df 00bc 1062 023d b8a6 c3bd
00000030: 82f9 c83c 9ef7 0c3d 4c69 b63c efe4 8a3c
00000040: a05f 473d 2d88 273e 9be0 dfbd 8ec3 86bb
00000050: 19f1 793c 6337 56bd bee5 c1bb 641e f4bc
00000060: e8b0 083e 0da9 55bd 6304 a9bd f9e3 13bd
00000070: ec9d 1cbd 7d56 c93d d82b fabc 7c89 cfbd
00000080: 0ad1 d83d 22fd c7bc 19ea 193e 2ef4 0d3d
00000090: 7f51 ecbb f4d5 f3bd 9fdf 2b3b dbb9 543d
000000a0: 1eb8 2dbc 696b 623d 4936 f13d d893 3c3d
000000b0: cf64 863d 7f67 acbd 856d 863c 84fe 29be
000000c0: af40 b33d 33b9 f23d 4952 fdbd ba29 333e
000000d0: 27cd d73b 2894 d53c d396 c5bd 03b4 5e3d
000000e0: 8a0d 32bc 6506 d2bd 0bd4 f03d 5dd1 413e
000000f0: 81ca ae3d 598e cd3d fef0 dc3c a270 cc3d
00000100: 0b9c 3abe 153e 063e 7550 d93d 96af 47bd
00000110: cb84 a8bd 5ab0 4abd d62a 07bd 664d 933d
00000120: de4d d93c b924 30bd 6829 95bd 220d b1bd
00000130: 1616 46bd f30d c63c a1c2 163e b76e d63d
00000140: 4fb8 1b3e 8e5e a5b9 e73b bdbd a75a 443d
00000150: 320d 8fbc 0641 e03d 089b a5bb 5c76 b5bd
00000160: 5ea4 01be 8859 3cbd 3df4 1e3d aaee 883c
00000170: c9d3 acbd 5b29 4cbd dae1 b03d 387e c6bd
00000180: a984 ed3c 829e cebd 3a0e 88bd df86 aabc
00000190: 5df2 223d 93c1 273d ff97 08bd 59e1 82bc
000001a0: 155f e03c 71b2 803d 40a1 c2bd 5835 40be
000001b0: b322 8c3d c13a cd3c 529d 253d 765f 2f3e
000001c0: bc81 043e 479e 103d a873 f9bd a6a2 fa3d
000001d0: c01a ab3d 34e3 0fbe b736 293d 1a4d 203e
000001e0: 151b b6bd 238a 243e 0473 3b3e 4e4e 953d
000001f0: 946b cf3d 6824 363c accf b9ba ef7f fabc
00000200: 9a6d 1fbe 49e4 42bd a06b 903a d3f0 5dbc
00000210: 7fe7 15be 8c4b b33d e0aa f23d e05c e6bd
00000220: 5dfc be3c 86eb 083e 31d5 37bd 2bf0 b3bd
00000230: 1485 aebd b44e 78bd bbdc 013d 9dbf 18be
00000240: d372 01be 487e cb3d 3273 223d e85e 193e
00000250: f14f f7bd 30b4 fcbd de83 96bc 4979 1dbe
00000260: 15f9 283e 7ff9 1bbd 45d1 eebb f2c3 0f3d
00000270: fb01 543d 7483 763d eca4 58bd b413 d43c
00000280: 8a68 e9bd 0d41 09be ea69 bc3c 3a4e 043d
00000290: bf28 c13d 1ee2 b7bd 6d84 ccbd b670 35bd
000002a0: 55ba d63d 59ed b23d 403f 0ebe 0db4 103d
000002b0: b5be 0d3c a54e a03d 7e2d 0a3e 746d 883d
000002c0: 9d95 c93c affa 02be bc4d 32bd c30f 8dbd
000002d0: fc6e 1abe 8bbd cbbd 35b0 353c 252f 34bd
000002e0: dbbd 223e 18ce ebbc 6ce0 25bd d41e 443d
000002f0: ab3f b93d 822a 713d 0931 ba3d 7579 acbd
00000300: 211a 89bc 4fd0 1bbd f882 9bbd 0403 563c
00000310: 265e 093b cf0e 45be 90c2 753b d225 cebc
00000320: 74bc 863d b2db 28be 6aca 053e 6363 523b
00000330: 9419 efbd 8bd5 853d f519 c3bc 4a70 cd3d
00000340: fea2 5a3d 2e0a fc3c 6750 f7bd 7f81 58bc
00000350: 7993 86bd 2254 32bc 445d 0ebd 62ce 26bd
00000360: fd5f d1bd 4ec3 ec3d d959 153d 0c0f 4abc
00000370: 57b9 fc3d 5cfd 84bd 4266 07be 302d 1abe
00000380: c9b1 473b 4e32 3dbd 6aa5 e8bd 2edb 4a3d
00000390: ca0e 51bd 7bee 2ebd 2d3b 993d 40f7 69bd
000003a0: cbb8 db3d 885e acbd dd7e 09be 035b 9abd
000003b0: 101f ad3d e943 023d b685 98bc e853 e03d
000003c0: 3112 c838 7105 66bc c721 a6bc 175e ee3d
000003d0: f658 0b3c c000 1a3d 8ac4 bb3c bd1e 303d
000003e0: 2f85 b4bc a23e 2cbd e83f b03c 262b 853d
000003f0: 4c97 dd3c d9b2 253d 57f1 793d c20d 593d
-0.059621327 -0.10021279 0.025270276 0.07679264 -0.122840576 -0.062150568 0.0515708 0.10533392
0.107115 -0.007865809 0.0318318 -0.095532835 0.024533037 0.034415834 0.022267006 0.016954867
0.04867518 0.1636054 -0.10931512 -0.0041126674 0.015255236 -0.052298915 -0.00591728 -0.029799648
0.13348734 -0.052163173 -0.0825279 -0.036106084 -0.038236544 0.098309495 -0.030538484 -0.10133645
0.10586746 -0.024412695 0.15030707 0.034656696 -0.0072118635 -0.11906043 0.0026225818 0.051935058
-0.010602979 0.055278216 0.11777932 0.046039432 0.065621965 -0.08418178 0.016409645 -0.16600996
0.08752572 0.1185173 -0.1236921 0.17496386 0.0065857354 0.026071623 -0.09647908 0.05437089
-0.010867486 -0.10255126 0.11759194 0.18927522 0.08534718 0.10036916 0.026970383 0.099824205
-0.18223588 0.1310962 0.10611049 -0.048751436 -0.08228453 -0.04948459 -0.032999836 0.07192497
0.026526388 -0.04300377 -0.07283288 -0.08645083 -0.048360907 0.024176573 0.14722683 0.10470336
0.15207027 -0.000315417 -0.09239941 0.047938015 -0.017462347 0.10949902 -0.0050538816 -0.08860466
-0.12660357 -0.04598382 0.038807143 0.016715366 -0.08438832 -0.049844127 0.08636828 -0.09692043
0.028993921 -0.10088827 -0.066433385 -0.020816265 0.039781917 0.04095609 -0.03334808 -0.015976595
0.027389089 0.06284035 -0.09503412 -0.18770349 0.06842556 0.02505243 0.040433235 0.17126259
0.12940115 0.035307195 -0.12180263 0.12238054 0.083547115 -0.14051515 0.041311946 0.15654412
-0.08891884 0.1606832 0.18305594 0.07290326 0.10127941 0.011117078 -0.0014176271 -0.030578582
-0.15569153 -0.04758099 0.0011018403 -0.0135461865 -0.1463909 0.08754644 0.11848998 -0.11248183
0.023313696 0.13371095 -0.04488105 -0.08786043 -0.085214764 -0.060621932 0.031704646 -0.14916845
-0.12641458 0.099361956 0.03966064 0.1497761 -0.120757945 -0.123390555 -0.018373426 -0.15378298
0.16501267 -0.038079735 -0.0072881305 0.035098977 0.0517597 0.060183957 -0.052891657 0.025888301
-0.11396892 -0.13403721 0.022999723 0.032301165 0.094316 -0.08978675 -0.09986196 -0.044296943
0.10484759 0.08736677 -0.13891315 0.03532796 0.008651425 0.078275 0.13493916 0.066615015
0.024607474 -0.1279094 -0.043531165 -0.06887772 -0.150814 -0.09948262 0.011089374 -0.043990273
0.15892737 -0.028784797 -0.04049723 0.047880962 0.09045347 0.05887843 0.09091384 -0.084216036
-0.016736092 -0.038040455 -0.0759334 0.013062242 0.0020960658 -0.1924393 0.0037500001 -0.025164519
0.06578913 -0.16490057 0.13065496 0.0032102696 -0.116748005 0.06534871 -0.023816088 0.10031183
0.053378098 0.030766573 -0.120758824 -0.013214468 -0.06571097 -0.010884317 -0.034756914 -0.040724166
-0.102233864 0.11560689 0.03646264 -0.012332689 0.12340038 -0.06493637 -0.13222602 -0.150563
0.0030470958 -0.046190552 -0.11359675 0.049525432 -0.051039495 -0.0427079 0.0748199 -0.05712056
0.10728606 -0.08416468 -0.13427301 -0.0753689 0.0845319 0.031803045 -0.018618446 0.10953504
9.5401316e-05 -0.014039383 -0.020279778 0.1163904 0.008505097 0.03759837 0.022920866 0.042998064
-0.022036163 -0.04205192 0.021514848 0.065023705 0.027049683 0.040453766 0.061021175 0.052991636

lstm.bias_ih_l1 f4 [400]
00000000: 1ae5 9ebd 4217 ddb9 cddd e73b 68bb 09bd
00000010: 9124 1abd ba82 b23d 17cd 20be de39 81bd
00000020: 4341 423d 6a94 8dbb d27b e6bd 973a af3d
00000030: e02d 453d 52c9 b3bd d6a8 8cbd d9c4 bfbb
00000040: 9dbf 3cbe bab7 5f3d 1592 e43d 0788 cbbd
00000050: a5f3 a0bd e131 3f3c f4b6 923c d540 9abc
00000060: c9fb 45bc 5e43 38bd 797a 103e d356 0cbe
00000070: 18a3 f63a ccff 6fbd eb55 4bbd 9395 053c
00000080: dc7c a53c 7161 b43d d7b4 3ebd 48f9 dbbd
00000090: 1392 c3bd 9c07 643d 3513 4dbe 1b70 623d
000000a0: 44fc 933d 3743 a2bd 3b18 59bb 05fe fe3c
000000b0: 52c5 a53d fd43 8ebd 6750 ecbd 4853 a6bd
000000c0: 4783 f5bc 9f19 c2bb e996 d13d 0651 503c
000000d0: a800 e7bb b596 13be bd7b fabd d62b 053d
000000e0: 9b5e 9c3d 53da 653d 6447 1bbd 28f4 e43b
000000f0: 6221 bcba f051 d83c 6b41 203d b4e9 5cbd
00000100: 68a2 01bd 7c9e d43c ca63 d53b c911 4dbd
00000110: 7b34 993d 99a9 8ebd d1e1 0abd 8a85 d0bd
00000120: 9e86 d4bd 9767 bfbd 37fe a6bd c463 943d
00000130: 9e0f 583d 99de a0bc 56e4 9b3d 296c 74bd
00000140: e942 ddbb 1bf9 cdbb f3b2 d3bb ff81 2e3d
00000150: dc20 56bc 416a 203d cce6 f6bd 0bee cbbd
00000160: e888 c2bc a491 bf3d 61e4 fbbd 9d19 dfbd
00000170: d071 79bd 7636 45be 7324 843b 5024 8abd
00000180: 64a3 c1bd 239b 3abd 94a3 36bd 2667 bfbc
00000190: 365c 833d 11f0 ebbc 5c1f 923d 7490 fcbd
000001a0: 2c68 f1bd 2c66 1b3d 4d08 b9bd 647e 4ebd
000001b0: 007d e73c 567e ce3c c895 9abd ad8d 1b3d
000001c0: bc4d cbbc ad38 8bbc 7aee 27bd 1f34 4a3d
000001d0: d5ea 37be 3479 3d3d 71e6 5ebd 90dc 19be
000001e0: ea14 2fbd c44e da3d 0c2e c3bd 113f 2abe
000001f0: 6fa4 07be bcde 0fbe 55ae d7bd 2b70 a5bc
00000200: 524d 02be 5b7a bebc a29c 24be a265 22bd
00000210: 973c 51bd fcce 0dbe e663 293d a0fd eabc
00000220: 84c5 debd 8980 003d d530 86bc fda0 06be
00000230: a5c0 9fbd 23fc ca3b 9c60 953c ec87 073d
00000240: 413f 07bd cdcc 7ebd ac3e fbbd 54df 88bd
00000250: dccc 453d 0d41 bbbd f2bf 5ebd 7f61 bc3b
00000260: 27bc f8bc 2caf a03c 3d04 d5bd a43d cdbd
00000270: e352 f53b ceb1 d4bb 3e97 50bd 919c 803c
00000280: e0d3 d539 e1bc 6dbd 524a eb3c 84d4 bcbd
00000290: b059 36ba 5432 9d3d afa9 f6bd 8814 3fbd
000002a0: 66a9 30be 387c 013d ce1b 5dbd 5464 b3bd
000002b0: 34bd 31be 16fa 0b3d 50c4 73be ba43 00be
000002c0: bf8e 41bc 3cf1 81bd e1d5 1abc f899 b9ba
000002d0: 9874 7dbd 7c4f 5b3e 1f96 943d 8b6c 8cbd
000002e0: 8b1c 11bd 69cd cfbc dfa3 d3bd 004d e9b8
000002f0: 5c60 2cbd aff6 36bd c003 6dbd fdbf 23be
00000300: 580f c5bd bad7 7cbd b05d 0f3d e34a 95bc
00000310: 5bfa 123d 57a0 c0bd 7961 f53c 9420 9bbd
00000320: cfcc 98bc 326d c6bd 265c 8e3c ea6e 5a3d
00000330: db02 f73c 36a2 c0bb bb0b 493d d5e6 943c
00000340: 45ac e2bd 1698 c6bc 7bcd a73d 3ead 803d
00000350: f719 65bd 42c9 62bb c9cc ad3d 55c5 2fbd
00000360: 7e3d 9c3c 9d05 db3b 32c3 a6bd ba07 35bd
00000370: ce6b b6bc b8f2 06bd cebe 513d 1b14 54bd
00000380: f351 60bd c97e 9fbd 07d3 b1bd c746 a53c
00000390: 4167 2bbb 7db0 0d3c 9521 b9bc a128 ecbb
000003a0: bca4 8abd 2ec1 ee3c f588 14bd 5445 5ebd
000003b0: dc79 87bd 60c1 18bd a34e 5b3d 8135 a73c
000003c0: 0f15 efbd 347b be3d fc7f 7fbd e037 923c
000003d0: df27 96bd 585e 953d bc32 8f3d d7da 74bd
000003e0: b0da 57bd e001 95bd 0e00 023d e999 c0bd
000003f0: d0b2 03bc 3bc8 b4bc 4c94 273d b70d 21bd
-0.077585414 -0.00042169733 0.0070760013 -0.03362599 -0.03763253 0.0871634 -0.15703236 -0.063098654
0.04742552 -0.004320671 -0.112540856 0.08556097 0.048139453 -0.08778633 -0.068681404 -0.0058523235
-0.1843247 0.054618575 0.111606754 -0.099380545 -0.078589715 0.011669607 0.017909504 -0.018829742
-0.012083956 -0.04498612 0.1410922 -0.13704996 0.0018816916 -0.058593556 -0.049642485 0.008153337
0.02020114 0.08807648 -0.04655918 -0.10740906 -0.09549346 0.05567132 -0.20026858 0.055282693
0.0722585 -0.079229765 -0.0033126015 0.031126985 0.080942765 -0.069465615 -0.11538773 -0.081213534
-0.029969824 -0.0059234644 0.10233862 0.01271463 -0.007049639 -0.14412959 -0.122306325 0.03251251
0.07635232 0.056116413 -0.03790988 0.0069871135 -0.001435321 0.026406258 0.039124887 -0.053933814
-0.031649023 0.025954477 0.00651214 -0.05006579 0.07480713 -0.06965942 -0.03390676 -0.101817206
-0.10377239 -0.0934593 -0.081539564 0.07245591 0.05274927 -0.019637393 0.07611911 -0.059673462
-0.006752361 -0.006285799 -0.0064605414 0.042604443 -0.013069358 0.03916383 -0.1205574 -0.099575125
-0.023746923 0.093539506 -0.12299419 -0.10893557 -0.060899556 -0.19259056 0.0040326654 -0.06745207
-0.094549924 -0.045558106 -0.044589594 -0.023364615 0.06414072 -0.028800996 0.071348876 -0.1233224
-0.11787447 0.037939236 -0.090347864 -0.050413504 0.028257847 0.025206726 -0.075481 0.03797691
-0.02481734 -0.016994799 -0.040998913 0.049366113 -0.17960675 0.046258166 -0.054418985 -0.15025544
-0.042744555 0.106595546 -0.09530267 -0.1662562 -0.1324632 -0.1404981 -0.10531298 -0.020195087
-0.12724808 -0.023251703 -0.16075376 -0.039647706 -0.051083174 -0.1384849 0.041355036 -0.028685391
-0.10877517 0.03137258 -0.016380707 -0.1314735 -0.07800416 0.006194608 0.018234544 0.03308861
-0.033019308 -0.062207032 -0.12267813 -0.066832215 0.048291072 -0.09143267 -0.054382272 0.005748927
-0.030363156 0.019614778 -0.10401199 -0.10021523 0.0074866875 -0.0064909225 -0.050925486 0.015699657
0.00040784385 -0.058041457 0.028721962 -0.09220222 -0.00069561135 0.07675615 -0.12044083 -0.04665044
-0.1725212 0.031612605 -0.053981595 -0.087593704 -0.17357332 0.034174047 -0.23805356 -0.12525836
-0.0118138185 -0.0634484 -0.009450407 -0.0014160266 -0.06187877 0.2141704 0.07255196 -0.068566404
-0.03542761 -0.025366502 -0.1033399 -0.00011124648 -0.042084083 -0.04466885 -0.057864904 -0.15991206
-0.09622067 -0.06172917 0.035001457 -0.018224185 0.03588329 -0.094055824 0.029953705 -0.07574573
-0.018652348 -0.09688796 0.017377924 0.053328432 0.030152729 -0.005878712 0.049083453 0.018176476
-0.11068014 -0.024242442 0.08193489 0.06283043 -0.055932965 -0.0034604822 0.08486325 -0.0429128
0.01907229 0.0066840188 -0.08142699 -0.04419682 -0.022268202 -0.03294632 0.051207356 -0.051776987
-0.054765653 -0.07787854 -0.086828284 0.02017535 -0.0026154073 0.008648035 -0.022599021 -0.007206992
-0.06769702 0.02914485 -0.036263425 -0.054265335 -0.0661504 -0.03729379 0.05354179 0.020411255
-0.116739385 0.09300843 -0.062377915 0.017848909 -0.073318236 0.07293385 0.06992099 -0.059779014
-0.05269879 -0.07275748 0.031738333 -0.09404356 -0.008038238 -0.022068134 0.04091291 -0.03931972
