btc_trading_model.pth (torch, 48807 bytes, 5 tensors)

lstm.weight_ih_l0 f4 [200, 6]
0	0x3e1dcd9f	0.1541047
1	0x3e10c4b5	0.14137538
2	0xbdbe0351	-0.09277976
3	0xbc9bdad0	-0.019025236
4	0xbd96d7ea	-0.07365401
5	0xbe3b5d25	-0.1829725
6	0xbf14f6b1	-0.5818892
7	0xbef64fa0	-0.48107624
8	0xbf10fcd1	-0.5663577
9	0xbf17193d	-0.59022886
10	0xbf06bd9b	-0.52633065
11	0xbee419ce	-0.44550937
12	0x3e01821d	0.1264729
13	0x3de71538	0.11283344
14	0x3de747b1	0.11292971
15	0xbe33f2c0	-0.1757307
16	0xbe8c2a3f	-0.2737598
17	0xbd56fa99	-0.052485082
18	0xbe24976e	-0.16073391
19	0xbdefbd0b	-0.11705979
20	0x3db5e35b	0.08881255
21	0xbcc5eeee	-0.024161782
22	0xbe4e96cb	-0.2017471
23	0xbda82f03	-0.08212092
24	0xbdf7d71e	-0.12101577
25	0xbe8f180e	-0.2794804
26	0xbe1c8461	-0.15284874
27	0xbd89d754	-0.06730524
28	0xbe9f04fc	-0.3105849
29	0xbe506fa3	-0.20355086
30	0x3e2c1b20	0.16807222
31	0x3dcecab4	0.10097256
32	0x3d82f0de	0.06393598
33	0x3cdeff28	0.027221277
34	0xbea4af0f	-0.3216481
35	0xbe559b71	-0.20860077
36	0xbeb85332	-0.36000973
37	0xbeedb7b1	-0.46429208
38	0xbe93eaa3	-0.2888995
39	0xbe81ef7d	-0.25378028
40	0xbf0d79a8	-0.5526376
41	0xbeeb511d	-0.45960322
42	0x3e359965	0.17734297
43	0xbde86c8b	-0.11348828
44	0xbd9d9dfd	-0.076961495
45	0x3d4b0646	0.04956653
46	0x3da965b9	0.08271355
47	0xbc333350	-0.010937527
48	0x3cb85330	0.022500604
49	0x3da22337	0.07916873
50	0x3d8956fb	0.06706043
51	0x3b92dfbd	0.004482238
52	0xbe83723e	-0.25673097
53	0xbdbc4a37	-0.09193843
54	0xbba4198b	-0.005007928
55	0xbe68e9d2	-0.22745445
56	0x3d301e4e	0.04299765
57	0xbe53c08a	-0.20678917
58	0xbea99c05	-0.33126846
59	0xbef5a911	-0.4798055
60	0x3d650039	0.055908415
61	0xbd5b63a2	-0.053561814
62	0xbd4d9e37	-0.050199714
63	0xbdb6da80	-0.08928394
64	0xbe5695a8	-0.20955527
65	0xbd888587	-0.06666093
66	0xbee355c5	-0.44401374
67	0xbf0226dd	-0.5084055
68	0xbee233ff	-0.44180295
69	0xbf0e000f	-0.5546884
70	0xbee3cd3c	-0.4449252
71	0xbf0a40e7	-0.54005283
72	0xbe3a51b1	-0.18195225
73	0xbe3504fd	-0.17677684
74	0xbc149963	-0.009069773
75	0xbe631cba	-0.22178927
76	0xbeea96e6	-0.4581825
77	0xbeb96ca8	-0.3621571
78	0xbf1181d6	-0.5683874
79	0xbed70f35	-0.4200379
80	0xbf18d28a	-0.5969626
81	0xbf1e65d1	-0.6187411
82	0xbf0eafc9	-0.55736977
83	0xbf019e32	-0.5063201
84	0x3e833f3d	0.25634184
85	0x3dc1ff48	0.09472519
86	0x3e3b33e6	0.18281516
87	0xbb86fc52	-0.0041194344
88	0x3e8e9997	0.27851555
89	0x3ea62287	0.32448217
90	0xbcc885ec	-0.024477921
91	0xbc41bbe4	-0.011824582
92	0xbd9f6c43	-0.07784321
93	0x3e01cfef	0.12676977
94	0xbce67f7d	-0.028136963
95	0xbdd32cb1	-0.103112586
96	0xbea0850e	-0.31351513
97	0xbe8697f4	-0.26287806
98	0xbea8dabc	-0.3297938
99	0xbe94d917	-0.29071876
100	0xbe093bd5	-0.1340173
101	0xbdb0b90e	-0.086290464
102	0x3ae91e51	0.0017785524
103	0xbe79e10e	-0.24402258
104	0xbd8c27dd	-0.06843541
105	0xbe75ade0	-0.2399211
106	0x3d753e41	0.059873823
107	0xbd672615	-0.056432802
108	0xbe0e1655	-0.13875706
109	0xbe094d0e	-0.134083
110	0x3d675d17	0.05648526
111	0x3ce10c88	0.027471796
112	0xbe75d8cf	-0.24008487
113	0xbe80329b	-0.2503861
114	0x3e230553	0.1592
115	0x3dee0d82	0.1162367
116	0xb91e60a6	-0.00015104059
117	0x3d66ddb5	0.05636378
118	0x3d305e7a	0.04305885
119	0x3e00faba	0.12595645
120	0x3dd70645	0.10499243
121	0x3c259b3b	0.010107811
122	0x3e40919a	0.18805543
123	0x3e05e681	0.13076212
124	0x3d02cd0d	0.031933833
125	0xbe3617ff	-0.17782591
126	0xbe07cff5	-0.13262923
127	0xbde5b916	-0.11216943
128	0xbe7d8ba0	-0.24760294
129	0xbea448d9	-0.32086828
130	0xbe0f9ff5	-0.14025863
131	0xbed06e92	-0.40709358
132	0xbbc7d950	-0.0060989037
133	0xbd83968d	-0.064252
134	0xbd9674da	-0.073465064
135	0xbd55eb90	-0.052226603
136	0xbe579de9	-0.21056332
137	0xbec56e54	-0.38560736
138	0x3d9c65cb	0.07636603
139	0xbe1c0b6c	-0.15238732
140	0xbe83f74a	-0.25774604
141	0xbea38889	-0.31940106
142	0xbd6c37e0	-0.057670474
143	0xbdc57c38	-0.096428335
144	0xbc901ec8	-0.017592803
145	0x3d7a39a9	0.061090145
146	0x3bbf2b2a	0.005834003
147	0x3cb6de10	0.022322685
148	0xbd9d5f33	-0.076841734
149	0x3e0c47a5	0.13699205
150	0x3da4bd34	0.080439
151	0x3e298290	0.16553712
152	0xbb3eb396	-0.002909874
153	0x3df7afe4	0.12094095
154	0xbd8b863c	-0.068127126
155	0x3e1ef189	0.15521826
156	0xbd62972a	-0.055319943
157	0x3cdef3a3	0.027215784
158	0x3cf3442a	0.02969559
159	0xbe2fcffa	-0.1716918
160	0xbe34b6b7	-0.17647825
161	0xbe4f0735	-0.20217593
162	0xbc690f12	-0.014224784
163	0x3a9acc18	0.0011810092
164	0x3d257d72	0.040402837
165	0xbdc60a74	-0.096699625
166	0xbdcff1d7	-0.10153549
167	0xbd454a60	-0.048166633
168	0xbdc53272	-0.09628762
169	0xbe44ca55	-0.19217809
170	0xbe9e29a1	-0.30891135
171	0xbde4fd97	-0.11181181
172	0xbe10a2c1	-0.14124586
173	0x3e72c728	0.23708785
174	0x3e634ba6	0.22196826
175	0x3e0e6b02	0.13908008
176	0x3e2d7dd4	0.16942531
177	0x3d80c0ad	0.0628675
178	0xbe3c4768	-0.18386614
179	0xbd95e3e8	-0.0731886
180	0xbd730344	-0.059329286
181	0xbdccb934	-0.09996262
182	0xbd2e90df	-0.04261863
183	0xbdd144e7	-0.1021822
184	0xbd10ed1b	-0.03538237
185	0xbe38c01b	-0.18042032
186	0x3d238445	0.039921064
187	0x3dd5202d	0.10406528
188	0x3e0f61dd	0.14002176
189	0xbe2071e7	-0.1566845
190	0xbe7c6982	-0.24649623
191	0xbe528afd	-0.20560832
192	0x3d52e083	0.051483642
193	0xbc85173e	-0.016246434
194	0x3ce6652c	0.028124414
195	0x3d1b657d	0.037938584
196	0xbd7b7981	-0.061395172
197	0xbe5fc844	-0.21853739
198	0xbe728484	-0.23683363
199	0xbe850419	-0.2597969
200	0xbe7ac8ed	-0.2449071
201	0xbe630199	-0.22168578
202	0xbd2b1b03	-0.041773807
203	0x3d2323cc	0.03982906
204	0xbd0cc079	-0.034363244
205	0xbe88bef3	-0.26708183
206	0xbe7a54f9	-0.24446477
207	0xbde222d8	-0.11041802
208	0xbe5d60d7	-0.21618973
209	0xbe8e100b	-0.27746615
210	0xbea929e4	-0.33039773
211	0xbef2a46c	-0.4739107
212	0xbe744612	-0.23854855
213	0xbe870339	-0.26369646
214	0xbe950713	-0.2910696
215	0xbdd6385c	-0.104599684
216	0xbee52053	-0.44751224
217	0xbf0d0734	-0.55089116
218	0xbf0be17b	-0.5464093
219	0xbf2219e5	-0.6332076
220	0xbe6d2620	-0.23159075
221	0xbec63a0e	-0.38716167
222	0x3ea2906a	0.31750804
223	0x3dd06ec2	0.101773754
224	0x3e16e2de	0.1473498
225	0x3e4bad4e	0.19890329
226	0xbdf0be46	-0.11755042
227	0xbdeb8a77	-0.115010194
228	0x3b9cf671	0.0047901203
229	0xbe4bbe7f	-0.19896887
230	0xbe353049	-0.176942
231	0xbe7368a9	-0.23770393
232	0xbe0e13ea	-0.13874784
233	0xbec2f58c	-0.38077962
234	0xbe0277de	-0.12741038
235	0xbe3d4d2d	-0.18486471
236	0xbc4c411d	-0.012466696
237	0xbe7ed9f1	-0.24887826
238	0xbe36ef45	-0.17864712
239	0xbe7f0178	-0.24902904
240	0x3dbb36d4	0.09141317
241	0x3e753f4f	0.23949932
242	0x3e5c7de3	0.21532397
243	0x3d8eed84	0.06978896
244	0x3ce6e980	0.028187513
245	0x3bbada8e	0.0057023233
246	0x3e6c77d7	0.2309259
247	0x3e361a29	0.17783417
248	0x3e8d09ac	0.27546442
249	0x3d962692	0.073315755
250	0x3cddbb4b	0.027066847
251	0xbdd0461f	-0.101696245
252	0x3ec2118b	0.3790401
253	0x3e7147ab	0.23562495
254	0x3e666eb3	0.22503166
255	0x3e26ce16	0.16289553

lstm.weight_hh_l0 f4 [200, 50]
0	0x3db61d97	0.088923626
1	0x3e5cc537	0.21559606
2	0x3d7506ec	0.059821054
3	0x3db8c01e	0.090210184
4	0x3e911daf	0.2834296
5	0x3bc6c3d0	0.006065823
6	0x3e481ce0	0.19542265
7	0x3c493d29	0.012282648
8	0x3dc9d48f	0.098549955
9	0xbddfd8e7	-0.10930043
10	0xbdfeb589	-0.12436969
11	0x3e1e617e	0.15466878
12	0x3cde2388	0.027116552
13	0xbde40cd9	-0.11135263
14	0x3e620d23	0.22075324
15	0xbd92b2cc	-0.07163009
16	0x3dba3362	0.09091832
17	0xbdb3eef6	-0.087858126
18	0x3dbc693a	0.09199758
19	0x3b4f1c6f	0.003160264
20	0x3e21f3f0	0.15815711
21	0x3d20660f	0.03915983
22	0x3e08619a	0.13318482
23	0x3cd5a6db	0.02608054
24	0xbd8b735c	-0.068091124
25	0xbe83d188	-0.25745797
26	0x3c8129d5	0.015767017
27	0xbcf622c0	-0.030045867
28	0x3d51db57	0.05123457
29	0xbe267dc9	-0.1625892
30	0x3e069af6	0.1314505
31	0xbda0b4cc	-0.07846984
32	0x3d298aa1	0.041391972
33	0x3dca44c9	0.09876401
34	0x3d536874	0.051613286
35	0x3d41bcee	0.047299318
36	0xbd367649	-0.0445464
37	0x3d6c5347	0.057696607
38	0x3d95fb44	0.07323316
39	0xbdebb64c	-0.1150938
40	0x3e29f5d6	0.16597685
41	0xbe380fee	-0.17974827
42	0x3d68dbf7	0.0568504
43	0xbe093d13	-0.13402204
44	0x3d88e07b	0.06683441
45	0x3d326381	0.043551926
46	0x3db30d8a	0.08742817
47	0xbc7ba68f	-0.015359535
48	0xbe473253	-0.19452791
49	0x3e03689d	0.12832876
50	0xbe94811b	-0.2900475
51	0xbdc7c45e	-0.09754251
52	0xbe2b1df3	-0.16710643
53	0xbe00b6ae	-0.12569687
54	0x3e02cc05	0.1277314
55	0x3ea8a6d0	0.32939768
56	0x3d9c5833	0.0763401
57	0xbe9464ad	-0.2898306
58	0x3ea9f4d3	0.331946
59	0xbdf83315	-0.12119118
60	0xbe3e38e9	-0.18576397
61	0x3d284e0e	0.041090064
62	0x3e877142	0.26453596
63	0xbc222417	-0.0098963
64	0x3e9ef7ec	0.31048524
65	0xbe0dc6d4	-0.13845378
66	0x3e589d61	0.21153785
67	0x3e2e8750	0.17043805
68	0xbdfd1db3	-0.1235918
69	0x3e483e85	0.195551
70	0x3de3ada0	0.11117101
71	0x3dc107bf	0.094253056
72	0xbe8b031a	-0.27150804
73	0xbda95f85	-0.08270172
74	0x3dcd1c28	0.10015136
75	0xbed8c970	-0.42341185
76	0x3dd7e5d6	0.105418846
77	0xbe7f1ddb	-0.24913733
78	0x3e6e6c5b	0.23283522
79	0xbd0b78a9	-0.034050617
80	0x3d852109	0.065004416
81	0x3df7aec1	0.120938785
82	0xbe106e27	-0.1410452
83	0xbdf80c15	-0.121116795
84	0xbccdeaaa	-0.02513631
85	0x3e2a14f1	0.16609551
86	0xbc183e4e	-0.009292198
87	0xbe6a5b9e	-0.22886512
88	0xbde7de11	-0.11321653
89	0x3e60dca3	0.21959166
90	0x3e1efc55	0.15525945
91	0xbd2a1a46	-0.041528963
92	0x3e9072d5	0.2821261
93	0xbdf7020e	-0.12060939
94	0xbd060414	-0.032718733
95	0xbcced793	-0.025249278
96	0x3e190023	0.14941458
97	0xbdd450d5	-0.1036698
98	0xbd1a1322	-0.037615903
99	0x3e2e7700	0.17037582
100	0x3d0ba304	0.03409101
101	0x3db61819	0.08891315
102	0x3dbc4599	0.09192962
103	0xbe19eaa7	-0.15030919
104	0x3dc7142c	0.09720644
105	0x3e3405a3	0.17580275
106	0x3ca40024	0.020019598
107	0xbe0e03e0	-0.13868666
108	0x3e36333f	0.17792986
109	0x3e0ee898	0.13955915
110	0xbe15ce9b	-0.14629595
111	0xbe190284	-0.14942366
112	0xbe1a4a8a	-0.15067497
113	0x3de71d72	0.11284913
114	0x3ebe935a	0.37221795
115	0xbdd1887b	-0.1023111
116	0x3c828dc5	0.015936742
117	0x3e2bca6f	0.16776441
118	0x3e1e6119	0.15466727
119	0xbc1021e7	-0.008797145
120	0x3e623402	0.22090152
121	0xbe5392fd	-0.2066154
122	0x3e5fa2c3	0.21839432
123	0xbe2a6dcd	-0.16643448
124	0xbc2f435c	-0.010697212
125	0xbd6d40a1	-0.057922963
126	0xbe2aa7ac	-0.16665524
127	0xbeb16791	-0.34649327
128	0x3e32f6a1	0.17476894
129	0xbe4efece	-0.20214388
130	0xbe2fc506	-0.17165002
131	0xbe5448c1	-0.20730878
132	0x3e0ddc69	0.13853611
133	0x3df15ba3	0.117850564
134	0xbe3d8fe4	-0.18511921
135	0x3d8fac83	0.07015326
136	0xbe0116f2	-0.12606409
137	0xbce936b7	-0.028468473
138	0xbc8508ad	-0.016239488
139	0xbd8e3ca7	-0.06945162
140	0x3e91e41a	0.2849434
141	0xbe3e216f	-0.18567441
142	0x3e56a194	0.20960075
143	0xbe05fe91	-0.1308539
144	0x3d899721	0.06718279
145	0xbc86b293	-0.016442573
146	0xbdd1ea8d	-0.10249815
147	0xbe2e7b36	-0.17039189
148	0x3ce64939	0.028111087
149	0x3e5e8af0	0.21732688
150	0xbde2d7ce	-0.11076318
151	0x3e16ee18	0.14739263
152	0x3c55409e	0.013015894
153	0xbe8f8ea8	-0.28038526
154	0x3df12e62	0.11776425
155	0x3e3d369f	0.18477868
156	0xbddbaf9b	-0.107268535
157	0xbdfc8573	-0.12330141
158	0xbdaa1edf	-0.083066694
159	0xbeb58f30	-0.35460806
160	0xbe9594a9	-0.2921498
161	0xbe887433	-0.26651153
162	0x3d70d9f3	0.058801603
163	0x3d4c7d21	0.04992402
164	0x3b9f0479	0.004852828
165	0xbdf1955d	-0.11796067
166	0xbcf1f3ca	-0.029535193
167	0x3e1a7356	0.1508306
168	0xbe3a5ea5	-0.18200167
169	0x3e5e1747	0.21688567
170	0x3e1672c9	0.14692225
171	0x3b766025	0.0037593928
172	0xbe956350	-0.29177332
173	0xbeb86590	-0.36014986
174	0x3e97271b	0.29522023
175	0x3c3ce3c3	0.011528912
176	0xbb8ef854	-0.004363099
177	0xbe934153	-0.28760776
178	0x3ea250f9	0.31702402
179	0x3daf633f	0.085638516
180	0xbbf537b7	-0.0074834484
181	0xbc910241	-0.01770127
182	0xbe231e4d	-0.15929528
183	0x3caac396	0.020845216
184	0xbe06f8fb	-0.13180916
185	0x3da01322	0.07816149
186	0xbe95b178	-0.2923696
187	0xbd1be92c	-0.038064167
188	0xbe026886	-0.12735185
189	0x3df43c4e	0.11925565
190	0x3e1591d2	0.14606407
191	0xbcc08954	-0.023502983
192	0x3e8e2179	0.27759913
193	0xbdc0e9a0	-0.094195604
194	0x3e885d94	0.26633894
195	0x3e7dbdeb	0.24779479
196	0xbe189a17	-0.1490253
197	0xbe5eb8e1	-0.21750213
198	0x3d8aceab	0.067777
199	0x3ce2fd76	0.02770875
200	0xbdc26c36	-0.09493296
201	0x3d8ce946	0.06880431
202	0x3d4bb957	0.0497373
203	0xbe77c73b	-0.24197094
204	0x3de808a8	0.11329776
205	0x3d46637a	0.048434712
206	0x3d1fd903	0.039025318
207	0xbe7c86dd	-0.24660821
208	0xbd717bfa	-0.058956124
209	0xbe8f8078	-0.280277
210	0xbe3ee45d	-0.18641801
211	0xbccc3c24	-0.024931021
212	0x3e80d5cb	0.2516311
213	0x3c0af8a5	0.008482133
214	0x3eb9fff0	0.36328077
215	0xbe4f34c1	-0.20234968
216	0x3e3e5bd9	0.18589725
217	0x3e6b7740	0.22994709
218	0xbea69629	-0.32536438
219	0x3e17fe8d	0.14843197
220	0xbe052707	-0.13003169
221	0x3e054d7c	0.13017839
222	0xbe9ac6b6	-0.3022973
223	0xbe4c8040	-0.19970798
224	0x3e365174	0.1780451
225	0xbca7712d	-0.020439709
226	0x3e1c2ee1	0.15252258
227	0xbe5371d5	-0.20648892
228	0x3e8f5ae7	0.2799904
229	0x3ceeca1f	0.029149113
230	0x3db0f0a9	0.08639652
231	0xbd98fb75	-0.074698366
232	0xbeaf36d3	-0.34221515
233	0xbdd6f536	-0.10495989
234	0x3e6d3fcb	0.23168866
235	0x3dec224f	0.11529981
236	0xbe869997	-0.26289055
237	0x3a2305f6	0.0006218845
238	0xbe8d84d5	-0.27640405
239	0x3e3dc990	0.18533921
240	0x3e65a09a	0.22424546
241	0xbe817ea7	-0.2529194
242	0x3e9bd47f	0.3043556
243	0x3e7fee23	0.24993186
244	0x3d8a5eb9	0.06756348
245	0xbd970b9c	-0.07375261
246	0x3c71618c	0.01473273
247	0x3ce6afdd	0.02816003
248	0x3d009558	0.031392425
249	0x3e1532fb	0.14570229
250	0x3d8bff75	0.06835834
251	0x3ddb9798	0.107222736
252	0x3e8c2540	0.2737217
253	0x3daf713b	0.08566519
254	0x3da0a13a	0.078432515
255	0x3ceec225	0.02914531

lstm.bias_ih_l0 f4 [200]
0	0x3d9b5bd9	0.07585878
1	0xbf1d9bbf	-0.61565775
2	0xbe4271fe	-0.18988797
3	0xbe5e09df	-0.21683453
4	0x3c13571d	0.008992937
5	0x3d027345	0.03184821
6	0xbf1e816a	-0.6191622
7	0xbdee3028	-0.11630279
8	0xbe4f30fc	-0.2023353
9	0xbd298938	-0.041390628
10	0xbe912cb9	-0.28354433
11	0xbec5032d	-0.38478985
12	0xbe8cf1c4	-0.27528203
13	0xbecce821	-0.4002085
14	0xbd3d7559	-0.04625449
15	0xbe2e5095	-0.17022927
16	0xbf0c01df	-0.54690355
17	0xbd3c48a2	-0.045967706
18	0xbdf6db05	-0.120534934
19	0xbd25e601	-0.040502552
20	0xbcbe2476	-0.023210745
21	0xbe44f6dc	-0.19234794
22	0x3d5803e9	0.052738104
23	0xbe795e3e	-0.24352357
24	0xbdea2a51	-0.114338525
25	0xbe0801e5	-0.13281973
26	0x3d707a8e	0.058710627
27	0xbdd234b7	-0.10263961
28	0xbf05f013	-0.5231945
29	0xbde570cd	-0.11203156
30	0xbe423ac1	-0.18967725
31	0xbdeceaec	-0.11568245
32	0xbd935391	-0.071936734
33	0xbe6c72f4	-0.23090726
34	0x3c9c6c1b	0.019094517
35	0xbec6e5b6	-0.3884713
36	0xbebaf6fe	-0.36516565
37	0x3e663450	0.22480893
38	0xbd5be9f8	-0.053689927
39	0xbe76e416	-0.24110445
40	0xbdc0bbb2	-0.094108
41	0x3b633bf4	0.0034673186
42	0x3e3e7962	0.18600991
43	0xbdef19ac	-0.116748184
44	0x3d96ca7a	0.07362838
45	0xbdd45ac5	-0.103688754
46	0xbec62803	-0.38702402
47	0xbd7890a9	-0.060684834
48	0xbf0ff3a0	-0.5623112
49	0xbea758e5	-0.3268501
50	0x3d7aa967	0.06119671
51	0xbeabcb7c	-0.33553684
52	0xbe74823f	-0.2387781
53	0x3c46387b	0.012098427
54	0xbee5ecbe	-0.44907182
55	0x3d77b85c	0.060478553
56	0xbf0864e4	-0.53278947
57	0xbe63f38d	-0.22260876
58	0xbdc30d07	-0.09523969
59	0xbd5af430	-0.05345553
60	0xbd0ba94f	-0.034097012
61	0xbec14388	-0.37746835
62	0xbe8c8c83	-0.27450952
63	0xbee353e5	-0.44399944
64	0x3e4c244f	0.19935726
65	0xbe3475f2	-0.17623118
66	0xbebf1fa8	-0.3732884
67	0xbe89f425	-0.2694408
68	0x3c84242f	0.016130535
69	0x3dd8dd77	0.10589116
70	0xbec7ee72	-0.39049107
71	0xbe219cb4	-0.15782434
72	0xbdf87211	-0.121311314
73	0xbe3300f5	-0.17480834
74	0xbe8e7ac1	-0.2782803
75	0xbe7169d9	-0.23575534
76	0xbe39f0c6	-0.18158254
77	0x3d6d9ce8	0.058010966
78	0xbd316d06	-0.043316863
79	0xbdee199b	-0.116259776
80	0xbe9e9390	-0.30971956
81	0xbe22f418	-0.15913427
82	0xbd27e1ff	-0.04098701
83	0xbe95f23b	-0.2928637
84	0xbedc7836	-0.43060464
85	0xbf01e349	-0.50737435
86	0xbe88972e	-0.2667784
87	0xbdd5d900	-0.1044178
88	0xbe5128a9	-0.20425667
89	0xbdf5b0cf	-0.11996614
90	0xbe4c38d2	-0.1994355
91	0xbe1c3f5c	-0.15258545
92	0x3d113579	0.035451386
93	0x3e28f385	0.16499145
94	0xbe608d4b	-0.21928899
95	0xbe697788	-0.22799504
96	0xbeb6cb71	-0.35702088
97	0xbe7a4ad2	-0.24442604
98	0xbee909a1	-0.4551516
99	0xbe46dab2	-0.19419363
100	0x3e3f97d7	0.18710266
101	0x3d9a3fcd	0.075317
102	0x3bc42c28	0.005986709
103	0xbc123bac	-0.00892536
104	0xbe48e4b6	-0.19618496
105	0x3d96f20a	0.07370384
106	0xbe0eddb7	-0.13951765
107	0xbdd0f5b3	-0.102031134
108	0x3d6f123d	0.058367003
109	0x3e247b91	0.16062762
110	0x3cc8d174	0.024513938
111	0xbe37b2f2	-0.17939356
112	0xbe1df8cc	-0.1542694
113	0x3d10445d	0.035221446
114	0x3e28dac1	0.16489698
115	0xbe35eb95	-0.17765649
116	0xbe10c18a	-0.1413633
117	0x3cda7130	0.0266653
118	0x3dd6b19b	0.10483094
119	0x3e07f42b	0.13276736
120	0x3d73e057	0.05954012
121	0x3c19e1bc	0.009392198
122	0x3e14fb3d	0.14548965
123	0xbe203244	-0.15644175
124	0x3d3a5c0b	0.045497935
125	0xbd9fb86d	-0.07798848
126	0xbe05ff70	-0.13085723
127	0xbdaa858e	-0.08326255
128	0xbcf131ac	-0.02944263
129	0xbb8d83de	-0.0043186983
130	0xbc9bb354	-0.019006409
131	0xbe0647ee	-0.13113376
132	0x3e19f7fd	0.15036006
133	0xbd046821	-0.032325868
134	0xbdb95b96	-0.09050672
135	0x3dc378ac	0.09544501
136	0xbc3bea49	-0.011469432
137	0xbc44b13a	-0.012005145
138	0x3df0bc2d	0.11754642
139	0xbe276cfc	-0.16350168
140	0x3b8b02b5	0.004242266
141	0xbd9b310c	-0.07577714
142	0x3d0bf62b	0.03417031
143	0xbd8fc53a	-0.0702004
144	0x3e346212	0.17615536
145	0x3d9fe480	0.07807255
146	0xbce21f00	-0.027602673
147	0xbd9583ea	-0.07300551
148	0x3e1668b6	0.14688382
149	0xbe2dc6db	-0.16970389
150	0x3c972afe	0.018453117
151	0xbf19dbed	-0.60101205
152	0x3bf307e6	0.007416713
153	0xbe804ba3	-0.25057706
154	0xbe3a5601	-0.1819687
155	0xbe13341a	-0.14375344
156	0xbf4100d5	-0.75391895
157	0xbc2dd92b	-0.010610859
158	0x3ad0c8d6	0.0015928994
159	0xbe147bba	-0.14500323
160	0xbef31396	-0.4747588
161	0xbece79e6	-0.40327376
162	0xbe83c1da	-0.25733835
163	0xbf0e1b4e	-0.55510414
164	0x3c51e764	0.0128115155
165	0xbe0e6f73	-0.13909702
166	0xbf25d5bd	-0.64779264
167	0xbe5553bf	-0.20832728
168	0xbd330472	-0.04370541
169	0x3d51df0f	0.051238116
170	0xbe128195	-0.14307244
171	0xbec5e194	-0.38648665
172	0x3d26c8dd	0.040718902
173	0xbeb4f113	-0.35340175
174	0xbe25e20b	-0.1619951
175	0xbe44e37c	-0.19227403
176	0xbe661d07	-0.2247201
177	0xbe690238	-0.22754753
178	0xbed74f5c	-0.42052734
179	0xbe31ad1a	-0.1735119
180	0xbe2e7e24	-0.17040306
181	0xbda616ce	-0.081098184
182	0xbe04b5db	-0.12959997
183	0xbea30315	-0.3183829
184	0xbe2b4c3c	-0.167283
185	0xbf0d7d6b	-0.552695
186	0xbeb42ccc	-0.35190427
187	0x3e8449c5	0.25837532
188	0xbc66a05b	-0.014076318
189	0xbd8e2d37	-0.06942218
190	0xbc38fb11	-0.011290328
191	0xbcf08043	-0.029358035
192	0x3dbc14cf	0.091836564
193	0xbd085d04	-0.03329183
194	0x3d9cbbd6	0.07653014
195	0xbe1f3623	-0.15547995
196	0xbe19ad39	-0.15007485
197	0xbda99b5b	-0.08281585
198	0xbf091434	-0.5354645
199	0xbe56efe6	-0.20989951

lstm.bias_hh_l0 f4 [200]
0	0xbd270ced	-0.04078381
1	0xbf032b25	-0.5123771
2	0x3cfc7242	0.030816201
3	0xbe9abca0	-0.30222034
4	0x3d275174	0.040849164
5	0x3ca60437	0.020265682
6	0xbf3705c9	-0.714932
7	0x3cd32540	0.025774598
8	0xbe4e0836	-0.2012032
9	0xbd999170	-0.07498443
10	0xbeba1402	-0.3634339
11	0xbee803f1	-0.45315507
12	0xbe9f4e11	-0.31114247
13	0xbebe56fe	-0.37175745
14	0xbddbff10	-0.10742009
15	0xbc8d99ac	-0.01728519
16	0xbf338055	-0.70117694
17	0xbe56bbb9	-0.20970048
18	0xbe503004	-0.20330817
19	0xbda9b68d	-0.08286772
20	0xbd273b3d	-0.04082798
21	0xbe4ff652	-0.20308807
22	0x3bfe44d4	0.00775967
23	0xbebd75bd	-0.3700389
24	0xbd834211	-0.064090855
25	0xbe92e52e	-0.28690475
26	0xbe0fef75	-0.1405619
27	0xbe1dad29	-0.15398087
28	0xbf00117d	-0.50026685
29	0xbe234abc	-0.15946478
30	0xbe01891e	-0.12649962
31	0xbe2956a5	-0.16536959
32	0x3d5f0bb3	0.054454517
33	0xbe68afe8	-0.22723353
34	0xbe153a5a	-0.1457304
35	0xbeec0e5d	-0.46104708
36	0xbf11f67e	-0.5701674
37	0x3dc60ccb	0.09670409
38	0x3cb6b5a2	0.022303406
39	0xbe875cfa	-0.26438123
40	0x3db2cd3d	0.08730552
41	0x3bdf46f4	0.006813878
42	0x3dee5e76	0.11639111
43	0xbdf3410e	-0.118776426
44	0x3be2d906	0.006922844
45	0xbe27fd5c	-0.16405243
46	0xbeab3c48	-0.33444428
47	0xbe9b1705	-0.30291
48	0xbf23cadd	-0.6398142
49	0xbdfd0011	-0.12353528
50	0x3d33c8ef	0.043892797
51	0xbec4f4d1	-0.3846803
52	0xbe2586d3	-0.16164713
53	0x3e0cb92a	0.1374251
54	0xbf0938c5	-0.5360225
55	0xbcdc39e0	-0.026883066
56	0xbf2a9283	-0.6662981
57	0xbdf73222	-0.12070109
58	0xbe2b36e5	-0.1672016
59	0xbe25878c	-0.16164988
60	0xbe737234	-0.23774034
61	0xbec2e8d8	-0.3806827
62	0xbe8b7860	-0.27240276
63	0xbec299d4	-0.38007987
64	0x3e6e8ff4	0.23297101
65	0xbe4becd9	-0.19914569
66	0xbea18de0	-0.31553555
67	0xbd8a19a5	-0.067431726
68	0x3c4967f8	0.0122928545
69	0xbe1fd364	-0.15607983
70	0xbea4a4fe	-0.3215713
71	0xbe8310e4	-0.25598824
72	0x3c198596	0.009370228
73	0xbebb8459	-0.3662441
74	0xbea4e269	-0.32203987
75	0xbe7e27e8	-0.2481991
76	0x3d753e46	0.05987384
77	0x3dfcdf44	0.12347272
78	0xbe025968	-0.12729418
79	0xbe29ad44	-0.16570002
80	0xbdfb141f	-0.12259697
81	0xbe817d2f	-0.2529082
82	0xbdbd8fdb	-0.09255954
83	0xbe043ce2	-0.1291385
84	0xbea820b2	-0.32837445
85	0xbea2bf88	-0.31786752
86	0xbea8cc51	-0.3296838
87	0x3db29534	0.087198645
88	0xbe88ee2c	-0.2674421
89	0xbe656d30	-0.22404933
90	0xbe6e14b3	-0.23250084
91	0xbe5ff1a7	-0.21869527
92	0x3da6580f	0.081222646
93	0x3e0a4698	0.13503492
94	0xbe3a8484	-0.18214613
95	0xbe556dd5	-0.20842679
96	0xbe8bcb4b	-0.27303538
97	0xbebf84a8	-0.37405896
98	0xbee33db7	-0.44383022
99	0xbe16c00c	-0.14721698
100	0x3d9133ac	0.07089934
101	0xbdb2a297	-0.08722418
102	0x3e5ee6fc	0.21767801
103	0x3aada5af	0.001324823
104	0x3ca03ae3	0.01955933
105	0x3c83a841	0.01607144
106	0x3e00b1d0	0.1256783
107	0xbd830274	-0.06396952
108	0x3d9308f5	0.07179443
109	0x3df04750	0.11732352
110	0xbd2b215d	-0.041779865
111	0x3d834337	0.064093046
112	0xbdd361c8	-0.10321385
113	0x3b4f3cc6	0.0031621917
114	0xbdb4dc97	-0.08831137
115	0xbb00f6d9	-0.0019678383
116	0x3d04f0bf	0.032456156
117	0x3dd2ac57	0.102867775
118	0x3dad19d7	0.08452194
119	0x3db50e22	0.08840586
120	0x3decb3b0	0.1155771
121	0xbe431060	-0.19049215
122	0x3e2bd7db	0.16781561
123	0x3cb70e96	0.022345822
124	0x3d9b5a7b	0.07585617
125	0xbd83d9bf	-0.06438016
126	0xbd5e98d4	-0.054344967
127	0x3d542d99	0.051801298
128	0xbdc22eec	-0.09481606
129	0xbe51704c	-0.20452994
130	0xbe476ce3	-0.1947513
131	0xbd4d062e	-0.05005472
132	0x3db83309	0.08994109
133	0x3da4b95f	0.08043169
134	0xbdc36b16	-0.095419094
135	0xbe110a75	-0.14164145
136	0xbd2739eb	-0.04082672
137	0xbe355353	-0.17707567
138	0x3e3c72fc	0.18403238
139	0xbdbf4b92	-0.09340586
140	0x3e260868	0.16214144
141	0xbe630222	-0.22168782
142	0x3e60f737	0.21969305
143	0xbd3b1168	-0.045670897
144	0x3cdbfe77	0.026854737
145	0x3da08bfe	0.078392014
146	0xbe27635a	-0.16346493
147	0xbe07aa9b	-0.13248675
148	0xbd42c53d	-0.047551382
149	0xbe1b52fb	-0.15168373
150	0x3cc68dcc	0.024237536
151	0xbf160648	-0.58603334
152	0xbe256ed3	-0.16155557
153	0xbe9b28e5	-0.30304638
154	0xbc6618c0	-0.014043987
155	0x3d27c64e	0.040960602
156	0xbf08ed70	-0.534873
157	0xbde95587	-0.11393266
158	0xbe70e6ae	-0.23525497
159	0xbde71137	-0.1128258
160	0xbeb815e8	-0.35954213
161	0xbec1a282	-0.37819296
162	0xbe97c65b	-0.2964352
163	0xbf050f31	-0.51976305
164	0x3a7e6f42	0.000970591
165	0xbe3acb55	-0.18241628
166	0xbf1df15d	-0.61696416
167	0xbd24807d	-0.0401616
168	0xbdf36dd4	-0.118861824
169	0x3e3396fa	0.17538062
170	0x3d65d52f	0.05611151
171	0xbec7ceba	-0.39024907
172	0xbe3bb84d	-0.18332024
173	0xbeb11915	-0.3458945
174	0xbe7c986b	-0.24667518
175	0xbe70a72b	-0.2350127
176	0xbd9ed6d4	-0.07755819
177	0xbd9e7b5f	-0.07738375
178	0xbecd483c	-0.40094173
179	0xbdd99fab	-0.106261574
180	0xbe575db9	-0.21031846
181	0xbc40af41	-0.011760534
182	0x3cfdbc46	0.030973565
183	0xbe8addc3	-0.27122316
184	0xbc8933f9	-0.016748415
185	0xbf1716df	-0.59019274
186	0xbf12db6a	-0.5736605
187	0x3e3850a9	0.1799952
188	0xbe5d74e9	-0.21626629
189	0xbe79b06a	-0.24383703
190	0xbda6723d	-0.08127258
191	0xbe032390	-0.12806535
192	0xbad112fc	-0.0015951092
193	0xbdc06536	-0.093943045
194	0xbd0c6a43	-0.034281027
195	0xbea253ed	-0.31704655
196	0xbde20b1a	-0.11037274
197	0xbe8094f9	-0.25113657
198	0xbeecab14	-0.46224272
199	0xbe9bb6da	-0.30412942

linear.weight f4 [1, 50]
0	0xbe48282a	-0.19546571
1	0xbc9737f6	-0.018459301
2	0xbe123901	-0.14279558
3	0x3cc0fc9a	0.02355795
4	0x3d1ac631	0.037786666
5	0xbe439c26	-0.19102535
6	0xbcccc4eb	-0.024996242
7	0x3e066f74	0.13128453
8	0xbe261bd1	-0.16221549
9	0xbe18de23	-0.14928488
10	0x3dc21ff1	0.094787486
11	0x3d8d0d40	0.06887293
12	0x3de41cf9	0.111383386
13	0xbd0b5bda	-0.034023143
14	0xbde79016	-0.11306779
15	0x3dfd662b	0.123730026
16	0x3c7ba619	0.015359425
17	0xbdec6719	-0.11543102
18	0xbe1099ef	-0.14121221
19	0xbe1e1f8c	-0.15441722
20	0xbe08f98f	-0.13376449
21	0x3da0fd7f	0.078608505
22	0xbe3a7161	-0.18207313
23	0x3e0da394	0.13831931
24	0xbdc11073	-0.094269656
25	0x3e031fb5	0.12805064
26	0x3dc60fba	0.09670968
27	0x3df0cd59	0.11757917
28	0xbc0bde59	-0.0085368985
29	0x3e3b64b3	0.18300132
30	0x3e14984c	0.14511222
31	0x3dfe67f3	0.124221705
32	0xbe291ddc	-0.16515297
33	0xbd8b8c59	-0.068138786
34	0x3dcf6591	0.10126794
35	0xbba11029	-0.0049152565
36	0x3d64919d	0.05580293
37	0x3e98c933	0.29841003
38	0xbe1a72b5	-0.1508282
39	0x3dfcbd04	0.12340739
40	0xbe19259a	-0.1495575
41	0x3e1a71ad	0.15082426
42	0xbe25e497	-0.16200481
43	0x3e1cf071	0.15326096
44	0xbe1c2e4e	-0.15252039
45	0xbdc1dbff	-0.09465789
46	0x3d802333	0.06256714
47	0x3df0c8f7	0.11757081
48	0xbd49bee4	-0.049254313
49	0x3dff90e3	0.12478807
