weights/btc_trading_model.pth (torch, 500228 bytes, 9 tensors)

lstm.weight_ih_l0 f4 [400, 6]
00000000: 00f3 693a 4abe 43bd 6092 00bd 2004 b9bd
00000010: a9bd 993d 43f1 ae3d 163b 1e3d f21e 0c3d
00000020: 95d3 8d3d cabd 4abd 2a53 6bbd ea54 c2bd
00000030: b023 383c c013 593b fa89 563d 24d8 cc3c
00000040: 8721 c13d 83f0 70bd e321 c7bd a033 233b
00000050: 9462 ebbc 00dd 593a 1e14 2e3d 9c63 13bd
00000060: 819e ba3d aa8d 55bd 7003 283c 6011 3dbb
00000070: 56b0 473d 27a1 7bbd 30b2 3abd f701 893d
00000080: d8ca 32bc 003e bcb9 8774 44bd eeed 283d
00000090: 5831 1c3c a0d2 47bd d881 9cbc 6290 173d
000000a0: d060 d1bb 1b2d a6bd faf8 b0bd d2be 683d
000000b0: 07da b5bd 3ab2 2dbd 0050 bfbd 003c 3e39
000000c0: 18d8 9c3c 490b 883d f0b6 1dbd f40a c5bc
000000d0: 404a 6fbc 4387 5ebd 2a84 133d 3eb5 0a3d
000000e0: eac8 26bd 63ea 843d e93e b83d b2fd 3e3d
000000f0: a57c 83bd bcee f73c 2031 33bd a8e6 8f3c
00000100: 6c44 c6bc bfd4 903d 97c4 c1bd 3bbb aa3d
00000110: f047 5fbc 3a4d 0fbd bf79 9d3d e874 fdbc
00000120: c048 44bb d7f8 48bd 86e5 4a3d e24e 333d
00000130: 49f1 933d e199 9e3d c07c dfba 47f8 a03d
00000140: 9890 1cbc 1f39 c9bd 5bd1 9dbd ce23 743d
00000150: 2bde b33d 62bc 233d 3e45 aabd 4850 b5bc
00000160: 9b24 aa3d 8717 8c3d bd83 afbd 1f78 cc3d
00000170: 5930 9d3d 410a c03d c6a6 4d3d a895 973c
00000180: 4752 b1bd 6137 973d ac30 87bc 00b8 b83c
00000190: 5a9a 81bd 2eee 3e3d da29 b1bd a0a7 cebb
000001a0: 4469 d33c 303b 76bd 601b a33c 3c49 ef3c
000001b0: 423e 233d 7e42 433d 309d cc3b 37bd 973d
000001c0: 74b6 bcbc 54e2 823c 115e 883d 362a 353d
000001d0: 72e6 623d 7098 6c3c a03b a13b aeb3 003d
000001e0: 3355 bdbd 3565 a43d e81d bbbc 1a38 c1bd
000001f0: dedd 9abd 10ea a4bd 62c5 463d 3ea8 8cbd
00000200: c0cb 583c 9bf7 b1bd 8107 b33d da97 3e3d
00000210: 9448 f53c a969 c03d 1892 6fbc b01a 52bc
00000220: 30cf 1f3c 0e36 2b3d ab05 c0bd 60cd d1bb
00000230: 0043 88b9 0684 623d f07b 563c 1031 3dbc
00000240: f280 5e3d 7bea c9bd 5ea4 98bd fc57 0cbd
00000250: 3064 a4bd e063 c9bc 60da 47bd 2f9a b73d
00000260: 7bee c1bd 8844 f8bc 7d0f 843d a0d0 953b
00000270: 9daa 8a3d 5989 833d 0010 b439 8dbf 76bd
00000280: a039 82bb 4a32 553d c890 cbbc f112 a43d
00000290: 8343 babd 9641 92bd 450a 97bd 6c11 e23c
000002a0: e09c 873b 29d7 a23d cf75 8e3d 6765 ae3d
000002b0: 37dc c0bd 72c4 a2bd b9d3 ab3d d6f1 92bd
000002c0: 87b5 b23d e1e4 c53d b7c8 a33d 56d6 603d
000002d0: 8763 65bd 03b8 36bd fa1a 05bd 21c7 853d
000002e0: b0ce 42bd 3c3b cd3c a05b 01bb 6263 bbbd
000002f0: ecf8 80bc 1b07 923d 7065 babd d410 aabc
00000300: 727a 773d d0a9 f9bb 8ce7 a8bc 4427 ce3c
00000310: b1f1 a73d f065 18bd 8ee2 83bd e51a c23d
00000320: 9358 a93d 1315 c9bd b8ad a3bc f535 a4bd
00000330: d0d3 013c 7cf2 d03c a02e 09bd b00f a13b
00000340: d05d 9f3b a090 bb3c 426b 703d 0da9 b8bd
00000350: 6a24 5c3d 5d07 24bd 0b86 863d 2c7b f2bc
00000360: 8fc6 b7bd 7b39 bbbd 6879 ca3c c3d9 57bd
00000370: 4556 c1bd 605d a23c 0089 c4bc 3a1f 5f3d
00000380: c6a3 a0bd 4679 523d 306e 6f3c 7066 79bc
00000390: 5289 4e3d 6879 a2bc 060d 013d 3093 933b
000003a0: e2c9 303d 3ebd 033d 7199 863d e5ea af3d
000003b0: 0adf 61bd 5d00 4ebd 4a74 b6bd a6e1 84bd
000003c0: 0af3 393d f563 91bd bd4b 33bd d20f 283d
000003d0: b603 163d 2bcd 9fbd 3294 90bd 7d79 80bd
000003e0: aeb1 753d 023b 6d3d 3045 18bc 8c92 12bd
000003f0: 683f 6dbc 8a1d 97bd 6528 ab3d 6614 9cbd
0.00089244545 -0.047788896 -0.031389594 -0.0903399 0.07506878 0.08542111 0.038630567 0.0342092
0.06925122 -0.049497403 -0.05745236 -0.09488852 0.011238977 0.0033123344 0.05237768 0.025005408
0.09430223 -0.05882312 -0.0972326 0.0024902597 -0.02873353 0.00083108246 0.042499654 -0.035983667
0.091122635 -0.052137055 0.010254726 -0.0028849468 0.04875215 -0.061432984 -0.04558009 0.06689828
-0.0109126195 -0.00035904348 -0.04796269 0.041242532 0.009533249 -0.048784852 -0.019104883 0.03700293
-0.006389715 -0.08114072 -0.086412385 0.056822605 -0.08879476 -0.0424063 -0.09341431 0.00018142164
0.01914601 0.066427775 -0.03850454 -0.024053074 -0.014605105 -0.054328214 0.036014713 0.033864252
-0.04071895 0.06490018 0.08996374 0.04662866 -0.064202584 0.030265205 -0.04374802 0.01756604
-0.024202548 0.07071828 -0.09461325 0.08336493 -0.013627991 -0.03498576 0.07689237 -0.030939534
-0.002995059 -0.049065437 0.049535297 0.0437764 0.07223756 0.07744194 -0.0017050728 0.07859855
-0.009555958 -0.09825348 -0.07705947 0.05960446 0.087826096 0.039974578 -0.08313988 -0.022133008
0.08307763 0.06840425 -0.08570049 0.09983849 0.07675237 0.09376956 0.050207876 0.018503979
-0.08658271 0.073836096 -0.0165027 0.022548676 -0.06328268 0.046613865 -0.08650561 -0.0063066036
0.02580703 -0.06011504 0.019910514 0.029209726 0.039854296 0.047670834 0.006244324 0.07409137
-0.02303622 0.015977062 0.06658567 0.04422971 0.05539555 0.014440641 0.004920438 0.031421356
-0.09244766 0.08027116 -0.022841409 -0.09434529 -0.07561849 -0.080524564 0.048528083 -0.06868027
0.013232172 -0.08689805 0.08741666 0.046531536 0.029941835 0.09395153 -0.014622234 -0.012823746
0.009753987 0.041799597 -0.09376081 -0.0064026564 -0.0002598986 0.05530169 0.013091072 -0.011547342
0.05432219 -0.09859177 -0.074532256 -0.034263596 -0.08026922 -0.024583757 -0.048792243 0.08964955
-0.09469315 -0.030306116 0.06448267 0.004571989 0.06770823 0.06422681 0.00034344196 -0.06024127
-0.0039741546 0.052049913 -0.02484931 0.08011425 -0.09094908 -0.07141416 -0.07375006 0.027596198
0.004138574 0.07951195 0.06956064 0.08515435 -0.09417003 -0.07947625 0.08389992 -0.07175033
0.0872603 0.09662796 0.07997268 0.054891907 -0.05600312 -0.04460908 -0.03249643 0.065321214
-0.047560394 0.02505266 -0.001973845 -0.09149815 -0.015743695 0.071302615 -0.09101379 -0.020759977
0.060419507 -0.00761912 -0.020618223 0.025165208 0.08200396 -0.03720659 -0.06439696 0.09477786
0.08268847 -0.09818473 -0.019980296 -0.08018104 0.007924035 0.02550625 -0.03349173 0.0049152
0.0048634782 0.022896111 0.05869604 -0.09016619 0.053745665 -0.040046085 0.065685354 -0.029599749
-0.08973419 -0.09141823 0.024716094 -0.052697908 -0.09440283 0.019819915 -0.023991108 0.05447314
-0.07843737 0.051385187 0.014613673 -0.015222177 0.050423928 -0.019833282 0.03150656 0.00450363
0.04316128 0.032162897 0.065722354 0.085897245 -0.055144347 -0.050293315 -0.08908899 -0.064883515
0.045397796 -0.070991434 -0.0437734 0.041030712 0.036624633 -0.078028046 -0.07059516 -0.06273172
0.0599839 0.057917602 -0.009293839 -0.03578429 -0.014480449 -0.07378681 0.08357314 -0.07621078

lstm.weight_hh_l0 f4 [400, 100]
00000000: 5cf8 f83c 053a 903d 261d 783d 3a95 1f3d
00000010: 6052 413b b07c 3ebd d1f6 973d 52ce 2d3d
00000020: 02bb 4b3d e09d e0bc f479 f13c 60fb 87bc
00000030: dec3 98bd 2031 8bbd f234 183d 0272 4e3d
00000040: 6aa0 70bd 0080 cab6 170b c73d 147e 913c
00000050: 7b06 863d 7aa1 6d3d a86f 0a3c ca42 1ebd
00000060: 36f4 223d 3b8f b13d 00b6 183c 00a8 a3bb
00000070: 9896 ae3c f93e 9f3d 98e6 d5bc 385a babd
00000080: e7f0 883d b489 95bc 0057 d63b a05d a1bb
00000090: 5ee2 403d 00a3 013c 2ce4 a8bc 0083 03bb
000000a0: 6a40 643d 0020 6ebd 6e2d acbd 1cb1 83bd
000000b0: 5d82 42bd 18b4 763c 80cd 60bc d2b1 033d
000000c0: 809a ad3b 888d 803c e6c9 7e3d da0b 02bd
000000d0: 02c2 adbd 2c09 9bbc cc63 bbbc 0097 5a3b
000000e0: d5d4 9bbd 6c7f ddbc bf12 c5bd 6ab9 1abd
000000f0: f07b 4abc 0048 bebc e3f9 883d 80ca ccbb
00000100: 58ce 5cbc 9a36 1c3d 6e4f 673d 0afe c5bd
00000110: f81d a2bd c091 2ebb face 603d 534d a93d
00000120: daa2 483d bd1e 8b3d c2fe 9fbd 7e6b 563d
00000130: cf14 a53d 00a3 443a b00f b1bd d3e9 2cbd
00000140: 9f23 813d f736 8e3d ce1f 98bd 53df 993d
00000150: 61e6 ca3d 86e0 013d 946d 82bc d926 c93d
00000160: b552 a6bd 24f2 0dbd 068a 9ebd 20ca b7bb
00000170: 564c 393d edb6 a7bd 39e8 c13d cce3 8bbd
00000180: 58b0 98bd dadd 233d b02f 19bc e089 2bbd
00000190: f70b 3bbd e37c 8c3d d251 053d 605c e9bc
000001a0: eeec 053d 409c 3cbc fb93 823d 74be ed3c
000001b0: 4eea 183d 70d7 2ebd 8d6a 983d a17f 9e3d
000001c0: 37d9 78bd 5e77 683d 20ac cabd dc26 d63c
000001d0: 1d8a c3bd 8b44 ad3d be10 80bd 171b 863d
000001e0: 674e 3bbd ea31 78bd 0297 633d 2832 b6bd
000001f0: 0005 ae3c 1dd7 3dbd 852c c83d 415b 8e3d
00000200: 42a5 4e3d 7365 bc3d c5ec a3bd 8ca4 0cbd
00000210: c38b 9a3d 4b95 aebd f6bc 263d ac67 fabc
00000220: 1229 4c3d 7363 65bd 8f17 bc3d f2aa acbd
00000230: 0080 8438 d25c 6d3d 0956 803d a3cf 953d
00000240: 00e0 3bbb dd33 71bd d89d f1bc 5774 b5bd
00000250: e1d7 b93d 4278 743d 8195 803d 7135 833d
00000260: 8a53 53bd 5a82 463d 0596 b23d 08c6 cb3c
00000270: c8e4 fcbc ee0e 493d 3680 5c3d c0d0 a9bc
00000280: b2da 393d 7032 52bc 8251 6a3d 0c1f 02bd
00000290: b9ff ab3d 9a0e 82bd ae19 423d bf94 a63d
000002a0: cb8f 91bd db30 aebd f791 bf3d 6596 bf3d
000002b0: c233 353d 963c 103d 687f adbd c3f0 a0bd
000002c0: 1dd5 9fbd cb47 bb3d 481a ccbc 90bc 0dbc
000002d0: d830 0b3c ef74 afbd e88e a0bd 68e8 6e3c
000002e0: af36 9d3d 4dbd a43d 1047 2cbc 79ca c63d
000002f0: 35d9 92bd 95e3 94bd 9e08 293d e83f 73bc
00000300: 0d35 c93d 3215 6f3d f622 0ebd 4558 c13d
00000310: ea3c 72bd 8b4a bebd 3fa5 a23d 3bde 9e3d
00000320: 4cdc eebc 4ca6 dfbc 9df5 90bd d8d6 c2bc
00000330: 1978 bf3d dafd 08bd ce3b 6d3d 42bb 553d
00000340: 404d 513b 7361 923d 9d57 b0bd 9c0f 09bd
00000350: 5efd 193d c172 c13d 7216 3b3d 0ae1 6ebd
00000360: 6746 36bd 8b3c acbd 1446 01bd 1da2 b3bd
00000370: 3d50 3abd 38bd a83c c505 ad3d 7698 423d
00000380: 58b7 2c3c b825 edbc 80b1 9cbb f0ee 8abd
00000390: 20ae dabb ccf3 de3c ec68 963c b023 763c
000003a0: 5b89 ba3d 006c 87ba 081a 98bc 800e de3b
000003b0: 5c83 e63c ea6a 18bd 7b82 95bd 97e3 b43d
000003c0: a177 b73d 73ce 4bbd a6c2 82bd ef32 bf3d
000003d0: 2279 083d 0a49 673d 9606 533d 1e19 113d
000003e0: 2d72 b73d 4851 ecbc 4604 633d 89db 963d
000003f0: 335c 65bd db59 b3bd 0a3b 2fbd d73a 933d
0.030391864 0.07042316 0.060574673 0.038960673 0.0029498562 -0.04650563 0.07420123 0.04243309
0.04973889 -0.02741903 0.029477097 -0.016599357 -0.07459234 -0.06796479 0.037159868 0.050401695
-0.058746733 -6.0349703e-06 0.09718912 0.017760314 0.06544205 0.058015324 0.0084494725 -0.038637914
0.03978368 0.08669897 0.009320736 -0.0049943924 0.021312043 0.07775683 -0.026110932 -0.09099239
0.066865735 -0.018254139 0.006541133 -0.004924491 0.04709088 0.007912397 -0.020616613 -0.0020067096
0.055725493 -0.058135986 -0.084071025 -0.06430265 -0.047487605 0.015057586 -0.01372087 0.032152005
0.005297959 0.015692487 0.062204264 -0.031749584 -0.0848427 -0.018925272 -0.022874735 0.0033354163
-0.07608954 -0.027038299 -0.09622716 -0.03777448 -0.012358651 -0.023227692 0.06688287 -0.006249726
-0.013476931 0.03813801 0.056472234 -0.09667595 -0.07915872 -0.0026637167 0.05488489 0.082667015
0.048983432 0.06792972 -0.07812263 0.052348606 0.080606095 0.00075010955 -0.0864557 -0.04221518
0.06305622 0.069440775 -0.07427941 0.07513299 0.099072225 0.031708263 -0.015921392 0.09821863
-0.08121244 -0.03465475 -0.0774117 -0.005608812 0.045238815 -0.08189187 0.09468121 -0.06830558
-0.0745551 0.040006496 -0.0093497485 -0.041879535 -0.045665707 0.06859758 0.032548733 -0.02848643
0.032696657 -0.011511862 0.06375881 0.02902148 0.037332825 -0.042685926 0.07442198 0.07739187
-0.060754027 0.056754462 -0.098961115 0.026141576 -0.095478274 0.08460339 -0.06253193 0.06548136
-0.045729067 -0.060594477 0.055563934 -0.08896285 0.021242619 -0.046347726 0.097741164 0.06950999
0.05045057 0.091990374 -0.080041446 -0.03433661 0.07546189 -0.08524569 0.04070755 -0.030567013
0.049843855 -0.056003045 0.09184181 -0.08431043 6.318092e-05 0.05794985 0.0626641 0.07314994
-0.002866745 -0.05888735 -0.029494211 -0.08860081 0.09074379 0.059685 0.062785156 0.064066775
-0.05159334 0.048464157 0.0872002 0.024874702 -0.03087081 0.049086504 0.05383321 -0.020729423
0.04537458 -0.012829408 0.05720664 -0.03176789 0.083983846 -0.06350441 0.04738777 0.0813384
-0.071075045 -0.08505412 0.093540125 0.09354857 0.044238813 0.03521403 -0.084715664 -0.07858422
-0.0780432 0.09144553 -0.024914876 -0.008650914 0.008495532 -0.08567225 -0.07839757 0.014581777
0.07676446 0.08043919 -0.0105149895 0.09706587 -0.07170335 -0.0726997 0.041267984 -0.014846779
0.09824572 0.058369823 -0.03470131 0.09440664 -0.059140123 -0.09291562 0.079416744 0.07757231
-0.02915778 -0.027300976 -0.07078097 -0.023784086 0.09349079 -0.033445217 0.057918362 0.052180536
0.0031936914 0.07147493 -0.08610461 -0.033462152 0.037595145 0.09445716 0.045675702 -0.058320083
-0.044500735 -0.08409985 -0.031560972 -0.08771155 -0.045486677 0.020598039 0.08448366 0.04750868
0.010541759 -0.02894865 -0.004781902 -0.06783855 -0.0066735893 0.02721586 0.018360578 0.015023157
0.0910823 -0.0010331869 -0.0185671 0.006776631 0.028138809 -0.037211336 -0.07300278 0.08832472
0.08958364 -0.049757432 -0.063847825 0.09335887 0.033318646 0.05646614 0.051519953 0.035424344
0.08957324 -0.028847352 0.055423997 0.07366092 -0.05599613 -0.08757373 -0.042780913 0.07188957

lstm.bias_ih_l0 f4 [400]
00000000: 378f 26bd b565 9dbd 98be 303c baf4 013d
00000010: e471 0dbd baf1 8fbd e8ab 153c 8ddc 963d
00000020: 1ec5 8bbd 9e27 103d b869 a6bc 93de 9abd
00000030: 0605 213d f88c bb3c aac0 643d e8e9 7d3c
00000040: 5b73 a2bd ea9c 8ebd ae32 633d a737 32bd
00000050: f2fa 673d 00fa 15bd ba12 88bd d419 e63c
00000060: 0d69 5ebd 6c61 c1bc e8f8 89bc a55a 99bd
00000070: 11ac 9e3d 5eae 3c3d c524 8cbd ead5 293d
00000080: b0b6 dc3b 4b65 9e3d f1be 8f3d 80ce 59bd
00000090: 3262 9dbd 696b 993d 052c b83d 6eec 7e3d
000000a0: 3007 99bd fd55 3cbd 829a 553d 30da 66bd
000000b0: 6ad7 36bd b988 943d 5965 803d 37f6 c0bd
000000c0: b487 83bc a031 52bb 1d07 abbd a760 c9bd
000000d0: 128c 773d 5d70 c7bd 7d3d cc3d e565 9f3d
000000e0: 2c20 b33c 38a3 f1bc 9f36 c3bd 0f69 b7bd
000000f0: 38e5 be3c fa3f 80bd 34bd a63c 7afb 0b3d
00000100: a7e9 803d 5ac0 bbbd e49b 86bd f829 dcbc
00000110: 86c1 a1bd edcb 28bd b47a c53c d2fd 313d
00000120: 6a6a 77bd a046 95bd 1405 b9bc 8dae 9c3d
00000130: 8b06 a03d 18b2 8a3c c051 19bb 3331 873d
00000140: b50a a0bd f20c 083d 5a6c 27bd 308d 2dbc
00000150: 2cd7 dc3c 65d3 cbbd 6d44 84bd 5bf4 be3d
00000160: 62ad a9bd 8092 25ba 0080 e4bb 55cb 9c3d
00000170: 49c9 a73d 9aca c3bd 570d cabd b152 c73d
00000180: 9843 2fbc e7dd 993d 1835 0c3c ee4d 643d
00000190: 2030 a83b 1e7e 7a3d f803 a8bc 3331 70bd
000001a0: 3663 6c3d f09c 26bd bd5a 6dbd 6099 6bbb
000001b0: 004c 5d39 e625 593d c363 6cbd b1b4 c63d
000001c0: 5a0a 613d dc22 05bd 2777 c7bd 6303 55bd
000001d0: 5ae5 15bd e0e4 c7bd aa9a 6b3d 4a69 22bd
000001e0: 6778 25bd 2e12 253d 843a cd3c 7ee8 93bd
000001f0: 518c b03d 40f1 39bd 58c4 953c 51f0 903d
00000200: 96e6 643d 1d16 b0bd f287 c7bd 1560 bcbd
00000210: e324 7abd c20c 693d a27c 363d 0db8 babd
00000220: b023 d0bb 6331 93bd 3a06 083d e281 363d
00000230: de7f 273d 80ba ebbc ba72 c7bd d130 a83d
00000240: 6040 973c 6173 8f3d e670 6c3d 32df 323d
00000250: e87e fbbc e04e c6bd 9880 b3bc 60c1 5dbb
00000260: 00f8 9ebd 120d 5b3d 9a04 5cbd 2008 923c
00000270: a812 733c 1091 63bc f10f 8f3d 114a 843d
00000280: 6a1f 2ebd 214a c83d f477 c83c 02ce 4e3d
00000290: 0728 a33d be30 763d b7aa b93d 8631 8bbd
000002a0: 1577 a83d b149 c33d 9ba9 833d 1529 bdbd
000002b0: f1d0 9b3d 8981 c53d b09f a6bb 20c9 e8bb
000002c0: 76bc 2d3d a4ad d73c 00f0 70bc 2271 89bd
000002d0: d5e9 9f3d 491e ae3d 0a7d 0cbd 3b2d 813d
000002e0: ca21 5b3d 48dc c5bd 65e7 9b3d d346 44bd
000002f0: 6ca0 9f3c 5096 c73b 0b5c aa3d c13c ab3d
00000300: b2eb 023d c0b2 2fbc 8fa5 893d 6a49 463d
00000310: 9e3d 6f3d f8b8 aebd 1a82 633d e31b 50bd
00000320: ca36 06bd 8ce1 adbc eae3 82bd 9a75 4b3d
00000330: 6287 763d 1581 ae3d 02c7 bdbd 8a8d 54bd
00000340: 24e7 ff3c f092 2d3c da87 a8bd c579 89bd
00000350: 1f20 9b3d 797f b03d 2dc6 61bd 97b2 46bd
00000360: 0553 ad3d 2850 b03c ea50 203d 62a3 bdbd
00000370: 40c0 2fbc ce27 463d 60cb b33c 43cf 6dbd
00000380: ac21 d43c f233 733d 3e97 2e3d 3922 b83d
00000390: 20d3 c4bb 3e71 1c3d 9612 613d efdb cabd
000003a0: a80c 94bd 8008 b33b c2a2 033d 40df 59bc
000003b0: 8e7c 99bd 709e 24bd 7876 bfbd a27c 183d
000003c0: 67b7 983d 2d3f 57bd 001b 483c bab5 b3bd
000003d0: 8029 8e3c 6b18 ae3d 8642 753d 11f3 993d
000003e0: a371 c03d ee6e 99bd 5600 08bd 88c7 a73c
000003f0: bd29 63bd 4396 bc3d 68be 67bc 6400 f03c
-0.040663924 -0.07685415 0.010787629 0.03172753 -0.034532443 -0.070285276 0.009135224 0.073662855
-0.068247065 0.035194032 -0.020314083 -0.07561984 0.03931143 0.022894368 0.0558478 0.015497662
-0.079321586 -0.06963523 0.055468254 -0.043510105 0.056635804 -0.03661537 -0.06644197 0.028088488
-0.054299403 -0.023606025 -0.01684232 -0.07487992 0.07747663 0.046064727 -0.06842951 0.04146377
0.0067356452 0.07734164 0.07018841 -0.05317545 -0.07684745 0.0749119 0.08992771 0.062237196
-0.07472074 -0.045980442 0.052149303 -0.056360424 -0.04463903 0.0725264 0.062693305 -0.09421962
-0.01605592 -0.0032073036 -0.08350966 -0.09832888 0.060436316 -0.097382285 0.099726655 0.07783107
0.021865927 -0.029496774 -0.095319025 -0.08955585 0.02330266 -0.062622026 0.020353891 0.034175374
0.06294566 -0.091675475 -0.065727025 -0.026875481 -0.0789824 -0.041210104 0.024106361 0.043454953
-0.06040422 -0.07288861 -0.02258543 0.076504804 0.07813748 0.016930625 -0.0023394674 0.06601181
-0.07814542 0.03321547 -0.040874816 -0.010592744 0.02695807 -0.0995243 -0.06458364 0.09323951
-0.08285023 -0.00063160807 -0.0069732666 0.0765597 0.08192689 -0.095601276 -0.098658256 0.09732569
-0.010697268 0.07513028 0.00855758 0.055738382 0.00513269 0.06115543 -0.020509705 -0.05864067
0.057711802 -0.04067701 -0.057947863 -0.0035949573 0.00021104515 0.05301466 -0.057712328 0.09702433
0.054941513 -0.032503948 -0.097395234 -0.052005183 -0.03659568 -0.09760451 0.057520546 -0.039651193
-0.040398028 0.04030054 0.025052316 -0.07222079 0.08620513 -0.04539609 0.0182821 0.07077087
0.055883966 -0.08597968 -0.097427264 -0.09198014 -0.061070334 0.056896932 0.044552453 -0.09117136
-0.0063519105 -0.07187154 0.033209063 0.04455746 0.040893428 -0.028775454 -0.09738679 0.08212436
0.018463314 0.07004429 0.057724856 0.043669887 -0.030700162 -0.09683013 -0.021911904 -0.0033837184
-0.07762146 0.05347926 -0.053715326 0.01782614 0.014835991 -0.013889566 0.069854625 0.064594395
-0.042510428 0.09779764 0.02447126 0.050489433 0.07966619 0.060105078 0.090657644 -0.06796555
0.08225838 0.0953554 0.06428834 -0.092363514 0.07608212 0.096438475 -0.005084954 -0.007104054
0.04241606 0.026327915 -0.014705658 -0.067110315 0.07808272 0.0850187 -0.034298934 0.06307455
0.05349902 -0.09661156 0.076124944 -0.047919106 0.019485675 0.0060909167 0.08318337 0.08361197
0.031963058 -0.01072377 0.06721031 0.048409857 0.058408372 -0.08531374 0.055543996 -0.050807845
-0.032767095 -0.021225713 -0.063911274 0.0496727 0.060187705 0.08520714 -0.09266473 -0.051892795
0.031238146 0.010594115 -0.08229037 -0.06712679 0.07574486 0.086180635 -0.055120636 -0.04851016
0.084631 0.021522596 0.039139666 -0.092596784 -0.010726988 0.048377804 0.021947563 -0.05805899
0.025894962 0.05937571 0.042624705 0.089909025 -0.0060066134 0.038193934 0.054949366 -0.0990523
-0.072289765 0.0054636598 0.03213764 -0.013297856 -0.0749446 -0.04019016 -0.09348768 0.037228234
0.07456856 -0.052550483 0.012213469 -0.08774896 0.017353773 0.08500751 0.059877895 0.07517064
0.093966745 -0.07491861 -0.033203445 0.020480886 -0.055459727 0.09208348 -0.0141445175 0.029297061

lstm.bias_hh_l0 f4 [400]
00000000: 08a8 bb3c 6167 8a3d 7efb 0e3d 8a01 adbd
00000010: 845c 01bd 2074 ef3b b635 3f3d 6834 893c
00000020: 05b9 973d 1851 aabd 04f7 f83c 392c a03d
00000030: 858d a53d b6e8 083d e260 273d 4669 90bd
00000040: 61a7 cc3d 40bd ad3c 413b 9a3d e0ee ad3b
00000050: d81f 5e3c 78c9 d4bc 3289 86bd d827 00bc
00000060: 908b 5d3c e028 83bb fe01 9dbd 795d 9c3d
00000070: dbc5 aebd 2821 97bc 80ca 7dba cafa 09bd
00000080: b8d3 babd 7228 613d a1a8 9d3d c119 b03d
00000090: 9179 853d 3099 6fbc cd1c 9e3d 430e c8bd
000000a0: a8c9 4fbc de75 a4bd 4c26 813c 8ef9 793d
000000b0: 7125 9f3d c008 253c e223 103d ba58 8abd
000000c0: 6fbf a33d 0800 9cbc 94d9 d93c 081a c93c
000000d0: d240 5b3d 4b08 b23d 5099 d23b 07f5 a23d
000000e0: 58fe c1bd ac55 cbbc a004 89bb e0d8 f8bb
000000f0: 4a74 533d 6327 3bbd 2864 ad3c a799 ab3d
00000100: a016 c4bb fd26 75bd 9a15 aabd fa3d 6cbd
00000110: 5063 bd3b f081 49bd d378 c73d 9353 62bd
00000120: 747c eb3c 55fc a8bd 92bf 113d 2ec4 043d
00000130: 2011 c4bc e449 fa3c 9d57 4ebd 80e3 03bd
00000140: 93aa 60bd a876 88bd c0cd 9fbd 9430 863c
00000150: bad0 1ebd ba1d 3f3d d008 5ebd 53df c9bd
00000160: 7423 b3bc 72ec 743d 6563 883d 6007 723b
00000170: a2d4 073d 5529 9f3d 24f1 cc3c 502c acbb
00000180: f2a6 703d 581d 44bc a66b 683d 812b 823d
00000190: 8128 cb3d 43da 903d 9131 903d 35cc ccbd
000001a0: e74d b0bd 1d16 9ebd 5c4d d03c 7eca 373d
000001b0: c2f3 013d 958f a4bd 182e 13bc f3c2 aebd
000001c0: a87c 713c 18bc ad3c 76a6 783d a0f1 623b
000001d0: 0416 d23c 9673 95bd 4145 a93d 8c18 a03c
000001e0: 7db2 cbbd 5d6a b93d 13de 9fbd 23b1 bf3d
000001f0: 780f 8dbc 7a59 5e3d a840 273c 50f6 8ebb
00000200: 23b0 29bd 0b5c adbd 101a 6abc 3d32 cabd
00000210: 0050 19ba 105c 193c a4ac f73c 4037 18bc
00000220: 36de 09bd b6bb 533d 1d05 aebd 8ed0 153d
00000230: 7047 9fbd 509f 3bbd 5274 1e3d 0e9a a5bd
00000240: e8d6 62bc 0d13 c6bd b743 933d ca5d 5f3d
00000250: 68f2 97bc c530 803d 5068 b13b 1b77 963d
00000260: d772 babd 4450 ea3c 46f4 01bd 469e a9bd
00000270: f398 42bd 7d60 37bd 6637 663d dab6 2ebd
00000280: c248 1a3d ce45 9ebd aecb 453d 11af 843d
00000290: 517d b43d 3886 8bbc 1471 b9bc 73e0 8cbd
000002a0: f65d 083d d8f0 9a3c 930b 95bd e827 b1bc
000002b0: c281 223d a5e4 c33d 70a1 4f3c 0055 0aba
000002c0: 43b6 99bd 1476 883c 31ff a43d c0d8 b03a
000002d0: 5df4 26bd 822d 4f3d 4ff2 8d3d d09c d6bb
000002e0: a251 763d ddb1 a73d 328b 143d 6106 ae3d
000002f0: 829b a0bd 0098 4cbb b0b3 7f3c 1493 a13c
00000300: 61b7 983d 43e1 a4bd 79d9 ad3d 0a30 473d
00000310: 3a07 573d fbbc b03d b782 62bd e9c7 993d
00000320: b435 fc3c 5898 ddbc 6858 963c 1075 19bd
00000330: 462f 97bd f6c5 82bd 7540 8e3d 26cc 95bd
00000340: 6019 703b a40c 8abd 597a bd3d 69a3 bc3d
00000350: 1a2a 27bd 5ae8 bfbd 13c2 54bd 4057 16bc
00000360: bd40 94bd c83f 9cbd 1431 8e3c 59a8 a33d
00000370: 66e1 14bd 373c b93d a506 a6bd 8bb7 a83d
00000380: a668 5e3d 6a63 b7bd ea10 1fbd a25e 0b3d
00000390: 0292 703d 07b3 953d c08f a73c ece9 933c
000003a0: 64af f23c 5094 24bc f70c 953d 6377 1cbd
000003b0: 80f3 acbc 701c 34bc 3aef 07bd 0204 7f3d
000003c0: 802c 35bd d4a7 e43c 7d96 bb3d 95f0 9e3d
000003d0: b874 8abd a07b a3bd b027 10bd 109f 63bc
000003e0: e26d 9bbd 52d2 5f3d 9834 66bc 9d61 75bd
000003f0: 18b3 65bc d6b8 02bd 2828 623c ad72 42bd
0.022907272 0.06757999 0.03490781 -0.08447559 -0.03158237 0.0073075444 0.046682082 0.016748622
0.074083365 -0.08316249 0.030391224 0.07820935 0.08083633 0.033425055 0.04086388 -0.07051329
0.099928625 0.021208405 0.07530833 0.005308017 0.013557397 -0.025974974 -0.06569137 -0.0078219995
0.013522044 -0.0040026754 -0.076663956 0.07635016 -0.08533832 -0.018448427 -0.0009681359 -0.033686437
-0.091224134 0.054970212 0.07698179 0.08598662 0.065173276 -0.014623925 0.07720337 -0.09768345
-0.012682356 -0.08030294 0.015765332 0.06102901 0.07770813 0.010072887 0.03519047 -0.067552045
0.079954974 -0.019042984 0.026593007 0.024548545 0.053528614 0.08692988 0.0064269677 0.079568915
-0.0947234 -0.024821125 -0.0041814595 -0.007594213 0.051624574 -0.04569186 0.021165922 0.08378916
-0.0059841424 -0.059851635 -0.083049014 -0.057676293 0.0057796612 -0.049196184 0.09739842 -0.055255484
0.028745867 -0.082512535 0.035583086 0.032413654 -0.023933947 0.030552812 -0.050376523 -0.032199383
-0.054850172 -0.06663257 -0.078029156 0.016380586 -0.038773276 0.04665921 -0.054207623 -0.09857049
-0.021867491 0.059795804 0.06659583 0.0036930665 0.033161767 0.07771555 0.025017329 -0.005254306
0.05875296 -0.011969887 0.056743287 0.06355954 0.09919835 0.0707288 0.07040704 -0.09999887
-0.08608609 -0.077190615 0.025427513 0.044870846 0.031726606 -0.080351986 -0.008983158 -0.08533277
0.014739193 0.021207854 0.060705625 0.0034628883 0.025645263 -0.07297437 0.08265162 0.019542955
-0.09946153 0.0905349 -0.07806029 0.09359958 -0.01721929 0.05428455 0.010208286 -0.004362859
-0.041427743 -0.084648214 -0.01428844 -0.098728634 -0.0005848408 0.009360328 0.030233689 -0.009290516
-0.033659182 0.051692687 -0.08497069 0.036575846 -0.077772975 -0.04580623 0.03868515 -0.08086024
-0.013845183 -0.096716024 0.0719065 0.054532804 -0.018548205 0.06259302 0.0054140463 0.07346936
-0.09103935 0.028602727 -0.031727098 -0.082821414 -0.047509145 -0.044769753 0.056205176 -0.04265485
0.037667044 -0.07728158 0.048289947 0.06478704 0.08812965 -0.017031774 -0.022636928 -0.06878748
0.033292733 0.018913671 -0.07277598 -0.021625474 0.039674528 0.09565095 0.012672767 -0.0005276948
-0.07505467 0.016657867 0.080564864 0.0013492331 -0.040760387 0.05058051 0.06930982 -0.006549455
0.060136445 0.081882216 0.03626556 0.084973104 -0.07842161 -0.0031218529 0.015606806 0.019723453
0.07456852 -0.08050778 0.08488745 0.048629798 0.052497126 0.08629795 -0.05530044 0.07508833
0.030787326 -0.027050182 0.018352702 -0.037465155 -0.073820636 -0.06385414 0.06945888 -0.07314329
0.0036636218 -0.06740692 0.092518516 0.092108555 -0.040811636 -0.093704894 -0.051942896 -0.009176075
-0.0723891 -0.07629353 0.017357387 0.07991094 -0.03634777 0.09044688 -0.08106736 0.08238133
0.05429902 -0.089545086 -0.03883449 0.034025796 0.058732994 0.073095374 0.020454288 0.018055879
0.029624648 -0.010045126 0.072778635 -0.038199794 -0.021112204 -0.010993108 -0.03318713 0.06225968
-0.04423189 0.027912058 0.09159563 0.07760731 -0.067605436 -0.07982564 -0.0351941 -0.013892904
-0.07589318 0.054643936 -0.014050625 -0.059907544 -0.01401975 -0.031914555 0.013803519 -0.047472645

lstm.weight_ih_l1 f4 [400, 100]
00000000: 84dc df3c 5a2c 4abd 56bc 6d3d fece 563d
00000010: ba3c 3f3d ecce aebc a081 9bbc e906 8f3d
00000020: de3e 1d3d 13e3 9b3d e423 cf3c 653d 893d
00000030: a80e b0bc f268 583d 6865 5abc be9f 95bd
00000040: acbf 99bc edb5 863d 00db 413a 4183 ad3d
00000050: a012 5bbd 485e 97bd b0d3 d0bb 9e24 4f3d
00000060: b891 cc3c d0b6 453c 5c56 16bd 3adb 623d
00000070: 16c5 573d 8085 b63c afe9 cabd a2cf 223d
00000080: 0066 b7bc 2228 703d 4946 a03d f294 3d3d
00000090: 704a 373c b020 d5bb 96dd 7d3d 2d3f 6bbd
000000a0: 3087 2bbd 5a91 21bd 93fb 943d d933 c73d
000000b0: 30bc ccbd e2de 5e3d 15cc a3bd 6ff5 853d
000000c0: d721 cb3d 5022 a6bd c041 92bd 5e75 a1bd
000000d0: b735 6bbd b00e 32bd 0adf 41bd a306 9dbd
000000e0: 5e03 2d3d 3738 6bbd f262 84bd c7a0 2ebd
000000f0: fd9e 86bd aef9 a8bd 227c 233d 8b81 9c3d
00000100: a734 873d 706b 43bd b308 75bd acc9 a83c
00000110: c0ce 9eba 9480 81bd 8548 913d d999 8a3d
00000120: 9521 933d a784 46bd 92a5 573d d8cc e4bc
00000130: 8940 903d 408b 3a3c 677d cbbd ee4d 303d
00000140: 24b3 d93c 8db7 4dbd 8bff c3bd b6ac 8ebd
00000150: 40dc f6bc ba84 13bd 4079 69bb e2bb 083d
00000160: 2644 83bd 63ed a33d 811d 863d cc15 f5bc
00000170: 544d d53c 30ae e53b f295 5e3d ec18 cf3c
00000180: d719 c6bd 40c1 beba 68b6 febc cc9b 89bd
00000190: 012f b03d b944 9b3d 2e7e 9fbd b554 c0bd
000001a0: f3fe 903d 3246 2f3d 60e6 efbc 5b27 a13d
000001b0: a99d 943d 48bd 84bd 2e50 6c3d b30e c7bd
000001c0: 002b beb9 b26a 80bd 4d8b 43bd 42e5 86bd
000001d0: 73fa 61bd 9c8d f33c b385 893d 5d63 ad3d
000001e0: cc6c f83c 1839 86bc 68fb 54bc abfe b13d
000001f0: 43b4 57bd 0017 d13b 6134 b13d ab76 aebd
00000200: 6710 5cbd e05d bb3b 7a62 93bd 9048 2f3c
00000210: fa56 93bd e829 863c a126 a13d ef9a 873d
00000220: aefe 1e3d e89a 43bc 6a92 c7bd 4098 7abd
00000230: 423f 80bd 4b26 b2bd 04eb e03c 97e7 72bd
00000240: 8a1d 623d baf9 733d 3531 af3d 0035 b439
00000250: 6ee6 793d 377c 6abd 6085 59bb 7a8e 7abd
00000260: dd19 4fbd 1a93 3cbd 1aa8 78bd 0d7d 9c3d
00000270: 9074 59bd ed70 5fbd 5e6e 563d 0824 973c
00000280: d853 0d3c beaf 033d 19b1 973d 04bd 85bd
00000290: e83a 4abc 0dfe b4bd 20be 67bd c0e3 303b
000002a0: 20a8 31bd 37d7 37bd 0a69 8abd a0db aabc
000002b0: 00cc 6eb9 3425 803c 20d4 aa3c 58fa 7ebc
000002c0: ad06 b63d 8399 50bd 805e 5b3a e26f 423d
000002d0: ea41 89bd b038 ecbb 0072 d7ba 2f73 8a3d
000002e0: 50bd 64bd 5aa1 6c3d ec9e cfbc e8ed 68bc
000002f0: 73d9 5abd 97e7 c23d f40d d4bc 36fb 313d
00000300: 5863 56bc 0a83 143d 8bcb b93d 238e 6abd
00000310: 622d 563d e06b b2bc d4cb b6bc b2d5 6d3d
00000320: e7e7 b4bd 2727 44bd 28c9 dbbc 4463 d53c
00000330: d502 80bd 6074 3abd a1d2 a73d c03c 46bc
00000340: 9468 abbc a6ed 553d d762 c73d 7185 b43d
00000350: e8db ac3c 9879 d7bc acb1 f03c 6c77 8abc
00000360: fefe 9fbd f77c 40bd 8d1a 46bd f974 be3d
00000370: 9d4b 4abd 4474 e53c a055 c2bb 0237 193d
00000380: 465b 4d3d e03b c83b fb11 8fbd ae6b 753d
00000390: fa30 1fbd abae 9b3d 1093 8abd 6015 fdbb
000003a0: d744 c23d c4bc fc3c 3639 02bd 935b c4bd
000003b0: ac44 cbbc 9069 90bd a91e 993d 3770 863d
000003c0: 98b6 c43c 8012 3d3a d16d a33d d33e aebd
000003d0: 7ece 4a3d 439f be3d 4e03 273d 85b4 a8bd
000003e0: 28be 90bd 554d 9dbd ca3e 91bd 59ac 8b3d
000003f0: 944a d53c 493e be3d 543c 8ebc b7bb 5fbd
0.02732683 -0.049358703 0.05804094 0.052443497 0.046688773 -0.021338902 -0.018982708 0.0698374
0.038390033 0.0761167 0.025285669 0.06701163 -0.021491364 0.05283446 -0.013329841 -0.07305859
-0.018768154 0.06577668 0.0007394999 0.084723 -0.05348456 -0.073910296 -0.0063728914 0.05057203
0.024971828 0.012067512 -0.036703452 0.055384852 0.05267819 0.022280455 -0.09907853 0.039748795
-0.022387505 0.058632024 0.07825906 0.046284623 0.011187181 -0.006504141 0.0619789 -0.057433296
-0.04187697 -0.03944526 0.072745465 0.09726686 -0.099968314 0.054411776 -0.0799791 0.06540953
0.09918564 -0.08112013 -0.07141447 -0.07883714 -0.057424273 -0.04347104 -0.047331847 -0.076672815
0.04223954 -0.057426658 -0.06464185 -0.042633798 -0.06573293 -0.082507476 0.039913304 0.07641896
0.066018395 -0.047709882 -0.05982275 0.020603977 -0.001211606 -0.063233525 0.0709391 0.06767625
0.0718414 -0.04846635 0.052648135 -0.027929708 0.07043559 0.011385739 -0.09936028 0.04304307
0.026574679 -0.050223876 -0.09570225 -0.06966536 -0.03013432 -0.03601525 -0.003562525 0.033382304
-0.06409483 0.08004262 0.06548596 -0.02991762 0.02603785 0.00700929 0.054342218 0.025280438
-0.09672897 -0.0014553443 -0.031092837 -0.06719169 0.08602715 0.07581467 -0.07787739 -0.093911566
0.07079878 0.042791553 -0.029284656 0.078688346 0.07256634 -0.06481415 0.057693653 -0.097196005
-0.00036271662 -0.062703505 -0.04774027 -0.06586696 -0.055170488 0.02973061 0.06714954 0.08466218
0.030325316 -0.016384646 -0.012999393 0.08691152 -0.052662145 0.0063809156 0.086525686 -0.08518728
-0.05372658 0.005717978 -0.07196517 0.010698453 -0.07194324 0.016377404 0.07868696 0.06621348
0.0388171 -0.011938788 -0.09744723 -0.061180353 -0.062620655 -0.0869871 0.027455814 -0.059302893
0.055203952 0.05956433 0.08554307 0.00034371763 0.06101077 -0.057247367 -0.003319107 -0.061171032
-0.050561775 -0.046038724 -0.06070719 0.07641039 -0.05308968 -0.054551054 0.052351348 0.018449798
0.008625947 0.032150023 0.074068256 -0.065301925 -0.012343146 -0.08837519 -0.0565778 0.0026991218
-0.043373227 -0.04488298 -0.06758316 -0.020856678 -0.00022773445 0.01564274 0.020853102 -0.015562616
0.08887992 -0.05092765 0.00083682686 0.04746998 -0.06702025 -0.007208906 -0.0016437173 0.06760251
-0.055844605 0.057771064 -0.025344335 -0.0142168775 -0.053430032 0.095168285 -0.02588556 0.043452464
-0.013085209 0.03625778 0.09072026 -0.05726446 0.052289374 -0.021779954 -0.02231399 0.058065124
-0.08833294 -0.0478889 -0.026829317 0.02604831 -0.0625054 -0.04552114 0.08194471 -0.012099445
-0.02092389 0.052228592 0.09735649 0.088145144 0.021100953 -0.026303098 0.029381596 -0.016902648
-0.07812308 -0.046994176 -0.048365165 0.092996545 -0.049388517 0.028009541 -0.0059306175 0.037405975
0.050135873 0.0061106533 -0.069858514 0.059917144 -0.038865067 0.07601675 -0.06766331 -0.0077234954
0.094857864 0.03085173 -0.03179284 -0.09587779 -0.024813019 -0.070513844 0.07476551 0.06564372
0.024012849 0.00072125345 0.0797993 -0.085080765 0.049513333 0.093077205 0.040774636 -0.08237556
-0.070675194 -0.076807655 -0.07092054 0.06819982 0.026036538 0.09289224 -0.017362751 -0.05462238

lstm.weight_hh_l1 f4 [400, 100]
00000000: 3822 eebc 3005 4bbc 14df 843c fa8d 72bd
00000010: cf86 ab3d 280b d7bc bb30 913d 6a2f 7fbd
00000020: b820 80bd f289 133d a8f6 dfbc 4042 26bb
00000030: c09d 24bc 4276 a2bd d05a 62bc 7030 3fbd
00000040: 439e 68bd e290 4a3d 2227 713d c86d 8b3c
00000050: c4c2 d53c ede1 8d3d f1b1 c83d b891 82bc
00000060: f95a be3d 28f1 7e3c 35e5 87bd 087c b63c
00000070: ee5d 223d 387f f4bc 6ab1 c1bd b0df ecbb
00000080: 4a46 7e3d a310 b83d 1312 a1bd 2260 743d
00000090: f061 01bc b037 09bd 7db4 c2bd bb0a 833d
000000a0: d849 babd 20a7 c9bb 16cf 7f3d 0078 d4bb
000000b0: 9c1f 86bd 205a a6bc a0b9 723b 0bca 813d
000000c0: e26b 513d 4adc 073d 9dc0 ae3d cb4d 93bd
000000d0: f879 a3bd ece1 ae3c 18ca 6dbc 282f e8bc
000000e0: a63c 5e3d 2db1 31bd b151 883d af72 c63d
000000f0: 7e35 1b3d 1032 0cbd 8d8f 87bd 47e4 b33d
00000100: f054 583c b647 86bd 538c 29bd 0c37 e93c
00000110: 8a36 09bd 3a13 4e3d ff14 8d3d 0039 a5bd
00000120: f73a 923d 4dcf 78bd a02e 383b 4936 bf3d
00000130: a34d 6fbd c1bf c13d 7a6c 8abd 3675 9bbd
00000140: 0b5a ab3d 6836 1a3c be0b 683d 6008 4ebd
00000150: 9f27 c03d 1cbd 15bd 43eb 8d3d 809b dfbc
00000160: 3acc 00bd 3d94 80bd c47e cd3c fdba aa3d
00000170: 2aad 0abd eeb7 4d3d b4ee a1bc 5d4c 4ebd
00000180: de6a 483d 1d43 28bd 8fe6 c6bd 5af6 11bd
00000190: 49ee 953d 8c90 a1bc c02a 8ebc e8fd aabc
000001a0: b6ab 04bd 5cc3 eb3c aad2 493d a29b 463d
000001b0: d0cf 8e3b e7ce 9b3d 19d4 a03d 889a aabc
000001c0: e3d4 42bd c6c0 443d a8c2 adbd c071 673b
000001d0: 1075 05bc 0af0 7d3d 165d a4bd 5939 803d
000001e0: e696 07bd 009b 1e3b 91a9 c33d b0fb 113c
000001f0: 25f1 a5bd 6803 6ebc e9f7 a53d 8212 95bd
00000200: 2d58 adbd 91c8 863d 08dc 9ebc c68e 093d
00000210: 48e6 c23c b37f ac3d 6f55 803d d26d 003d
00000220: 43f2 8b3d 5729 3abd c05a a7bc 1e2b 623d
00000230: 6a9a 023d 0d30 49bd 7e70 203d 40e1 deba
00000240: 68a6 9ebc 7a5a 50bd 9043 413c 6403 d83c
00000250: 5af7 64bd 96a4 a9bd ba38 2d3d 7361 983d
00000260: 3d94 bebd c2b8 753d e047 b33c 47e9 c6bd
00000270: c0b7 c3bd f195 c63d ccbe 873c a060 f6bb
00000280: f0e8 6f3c 50e3 e8bb ccc4 f73c 6ced 15bd
00000290: aa8f babd 0d88 3ebd 6b97 c1bd b468 ac3c
000002a0: 5fad 993d 6673 6c3d 4718 cb3d 34bc ab3c
000002b0: aee2 87bd 903f 623c 7dc5 2ebd b23f 0f3d
000002c0: a9ce 9e3d e0a6 a3bb 5296 583d a383 c03d
000002d0: e023 c6bc 7537 853d 912c b33d 82ea 1f3d
000002e0: 030f 56bd 30a8 6c3c 674f 45bd c6e8 623d
000002f0: 3ab9 463d 7ded 36bd d616 93bd 42a9 293d
00000300: f75c 963d a7d0 acbd c85a 9f3c 60c2 bfbc
00000310: ae66 323d 933e 6abd 408b fb3a 30d6 e0bb
00000320: 2077 a1bd 70d0 6bbc 926e c0bd da26 133d
00000330: 25f6 8b3d 6172 b23d 23be 9f3d 309c 8c3b
00000340: 4067 edbc 6373 56bd 806a 0a3c adcd 8a3d
00000350: c810 a03c e0cb 91bc e0c9 0abd 9ba3 c83d
00000360: fee6 373d f35a a6bd a3c1 60bd 80b9 1cbd
00000370: 00e8 c43a b1d1 bd3d 0a4e 00bd 42d7 0b3d
00000380: b0e6 6cbc b68e 7e3d 9af0 373d 6cb7 873c
00000390: 703d 773c 9f5a b93d 0cd7 e6bc d64a 063d
000003a0: c09e fb3a 2a0d 77bd de1a 433d 8388 a13d
000003b0: e4b9 04bd e911 9f3d 4535 cbbd 5139 cb3d
000003c0: 3a0d a5bd 00a7 9dbb 971e babd 9915 b13d
000003d0: 78c0 c0bc c852 86bc e96a c13d 535d c6bd
000003e0: 7f79 b73d 19ef c43d ba70 40bd da83 373d
000003f0: 3ee3 abbd 1e20 a5bd 289f 3b3c 6e20 93bd
-0.029069051 -0.0123913735 0.016219653 -0.05921743 0.08375322 -0.026250437 0.07089373 -0.062301077
-0.062562406 0.036020227 -0.027339295 -0.0025369078 -0.010047376 -0.07932712 -0.013815597 -0.046677053
-0.056791555 0.049454577 0.05887521 0.017020121 0.026093848 0.069278575 0.09799565 -0.015938625
0.092946954 0.015560426 -0.06635515 0.02227594 0.03964036 -0.029845819 -0.09457667 -0.007228814
0.06207875 0.08987548 -0.078647755 0.059661992 -0.007896885 -0.033500373 -0.09507082 0.06398531
-0.09096116 -0.006153956 0.062453352 -0.0064840317 -0.06548998 -0.020306647 0.003703691 0.06337365
0.051128276 0.03316907 0.08532832 -0.07192572 -0.07982248 0.021347962 -0.014513515 -0.028342798
0.054257058 -0.04338186 0.066562064 0.09689843 0.03789281 -0.03422743 -0.06619177 0.08783775
0.013203844 -0.065566465 -0.04139359 0.028468631 -0.033499278 0.050311305 0.0688877 -0.080675125
0.07140153 -0.060744572 0.0028103963 0.09336526 -0.05842365 0.09460402 -0.067589715 -0.075907156
0.08366784 0.0094123855 0.056651823 -0.050300956 0.09382557 -0.036557302 0.06929638 -0.027295828
-0.031444766 -0.06278274 0.02508486 0.083364464 -0.03385655 0.050224237 -0.019767143 -0.050365794
0.04893004 -0.04107963 -0.09711944 -0.03563533 0.0732084 -0.019722246 -0.01735437 -0.020873025
-0.03239032 0.028779678 0.04927317 0.048488267 0.0043582693 0.07607823 0.078529544 -0.02082564
-0.047566306 0.048035406 -0.08484393 0.0035315603 -0.008145586 0.061996497 -0.08025567 0.06260938
-0.033102892 0.0024201274 0.095538266 0.008910105 -0.08102635 -0.014527179 0.08103926 -0.07278921
-0.08464084 0.06581224 -0.019392028 0.033583425 0.023791447 0.08422794 0.06266295 0.031354733
0.06833317 -0.04544958 -0.020429015 0.0552169 0.031885542 -0.04911809 0.03916978 -0.0017004386
-0.019366458 -0.050867535 0.011795893 0.026368804 -0.055899955 -0.082833454 0.042290427 0.07440462
-0.09305618 0.059990652 0.021884859 -0.09712463 -0.09556532 0.09696568 0.016570471 -0.007518843
0.014642939 -0.007107176 0.030245207 -0.036603376 -0.09109433 -0.046516467 -0.09452709 0.02104602
0.07503771 0.05772724 0.0991674 0.020963766 -0.066350326 0.0138091 -0.04266881 0.034972854
0.07754261 -0.0049942583 0.05287773 0.09400108 -0.024187028 0.06504718 0.08748735 0.039042003
-0.05226041 0.014444396 -0.048171427 0.05539777 0.04851649 -0.04466008 -0.0718209 0.041421182
0.073419504 -0.08438235 0.019452468 -0.023408115 0.043554954 -0.05718858 0.001919128 -0.0068614706
-0.078840494 -0.014392957 -0.093960896 0.035925724 0.06834058 0.08713222 0.077999376 0.00429108
-0.028979897 -0.052356135 0.008448243 0.06777511 0.019539252 -0.01779741 -0.03388393 0.0979683
0.044898026 -0.08122816 -0.054872166 -0.038262844 0.0015022755 0.09268511 -0.031324424 0.034140833
-0.014459297 0.06214782 0.04490719 0.016566955 0.015090331 0.09050488 -0.028178714 0.032786213
0.0019197091 -0.06031529 0.047633044 0.07887366 -0.03240384 0.07767088 -0.0992227 0.099230416
-0.080591634 -0.0048111677 -0.09087866 0.086466976 -0.023529276 -0.016396895 0.094442196 -0.09685769
0.089587204 0.09615917 -0.046982504 0.044803478 -0.083929524 -0.080627665 0.01145152 -0.0718392

lstm.bias_ih_l1 f4 [400]
00000000: ba36 97bd 586a 70bc 068d 133d a810 aabd
00000010: 0da2 a9bd 4cbc bf3c d0ed 00bd 72d9 603d
00000020: d43f c8bc dee9 2b3d e8cf 883c 8ba7 93bd
00000030: 54f2 bdbc 1186 c73d 7c80 03bd 7a06 83bd
00000040: 3d72 1ebd d519 ad3d f2a0 c6bd 38f1 afbd
00000050: f1ff b43d 63dc 96bd ee1a 9bbd 9111 813d
00000060: 0237 283d a87c 983c 2d5a 4dbd 0074 a638
00000070: 6299 363d 9855 aa3c 876e 49bd 017c 953d
00000080: 8031 213c 60aa 8fbb 8325 9c3d 2047 bebc
00000090: 66a5 013d d3b7 bb3d 37e4 ad3d 28cd 853c
000000a0: 9a9a 1c3d 45ea b63d d091 303c d3e9 a43d
000000b0: cc51 15bd 80d1 bd3a 8805 b6bc ed09 cb3d
000000c0: 6d1d a3bd 2cea e73c 93fc 27bd c45e e03c
000000d0: 5c3e d23c e2ec a2bd 94ff 0bbd 2551 9f3d
000000e0: 827c 3f3d c2dd 453d f95b b13d 1757 76bd
000000f0: 2935 c13d 6035 053b 0c03 14bd 2271 2d3d
00000100: 419a b53d aa8d 093d a1b4 8e3d 8058 b8bc
00000110: f0c4 55bc 2208 b9bd 6881 adbc 1093 293c
00000120: c879 953c c269 373d d42a 88bd 604b 42bb
00000130: fb22 853d a622 a6bd 80db b5bb 512f 9d3d
00000140: 4ed9 5a3d 86e0 a0bd 626c 743d ac68 e7bc
00000150: cc62 cb3c 5b20 a5bd 772e c23d d879 713c
00000160: abe3 bebd d015 973b 701e 7abd 306d 55bd
00000170: 94d3 ae3c 08dc d0bc 239d 6fbd cc40 9e3c
00000180: a092 c53b 67ac 33bd a76b 55bd a9ee bd3d
00000190: e2ac 143d 549a c33c cab0 683d 0873 c9bd
000001a0: b0fe 39bc ceb7 abbd 685c 23bc b680 403d
000001b0: ef05 c93d 40ab a4bc 5e77 093d 0d0a a33d
000001c0: 5026 d2bb f727 a33d 02ef 3f3d 533d bdbd
000001d0: 9363 9bbd 66cb 0b3d a758 bf3d 3800 bbbd
000001e0: c3fd ba3d e092 cd3b 2a28 433d ec63 bebc
000001f0: c81f 87bc 98c8 3abc d38d 63bd cf74 843d
00000200: a756 27bd c63b 6f3d 9ac3 06bd 90c0 48bd
00000210: e838 423c d2e3 003d 034c bbbd c8a2 85bc
00000220: 5795 843d 780f 9ebd 9eec 043d b2c3 1f3d
00000230: 980d fabc 51ca a33d a581 cc3d 028e 053d
00000240: 08e4 953c 986e 873c d24b 443d d51f a4bd
00000250: bd74 a03d e869 a7bd 0036 3bbc 2279 b2bd
00000260: 869b a1bd 3e9d 303d 300f b83b 25ce b13d
00000270: c07a 19bb 3e55 403d 48f7 8e3c ecd4 8dbc
00000280: 2ad6 b2bd 4480 15bd e5e8 95bd 6800 5fbc
00000290: 00b6 443c e835 edbc 83cb ccbd a0ae 833b
000002a0: 8c5e f13c 0038 313c 8be2 a43d f394 a03d
000002b0: 2d83 a63d fb3c b9bd 2740 55bd 89ca a13d
000002c0: 7dcc 41bd 6a56 4cbd 1417 12bd 8fcf b5bd
000002d0: 113c 9c3d f29f 103d 9410 92bc b233 5b3d
000002e0: a1cc a33d 0540 bb3d 4882 8b3c aa64 37bd
000002f0: f2ab 783d 22f5 7b3d 0472 e33c 4008 05bd
00000300: e3c3 7cbd 220f 8abd 4592 c03d e49b e93c
00000310: 02dd 513d 6511 c73d b0ae 87bb c364 7dbd
00000320: 460c 03bd d31d 9b3d f1ee ae3d a2a1 4d3d
00000330: 898d b83d ae23 433d a393 b23d 0696 343d
00000340: 63f2 bebd 44dd fa3c 3546 acbd 702e 64bc
00000350: 5f96 bc3d 9dab 2fbd e0b2 bf3c d2c5 4b3d
00000360: 9a3f 5abd 8370 24bd 1ada c8bd 0401 d53c
00000370: 2b7e abbd d389 c03d 0308 9a3d 7725 63bd
00000380: 3072 e23b 8760 afbd e12d 893d 3946 b43d
00000390: 2884 57bc 960c 07bd 28c6 623c 5095 64bc
000003a0: 8a39 27bd 83c1 973d 98a9 95bc d1bb 803d
000003b0: b06d d13b 33b3 91bd bc7c 15bd 6827 cb3c
000003c0: 00dd e5bc 704f 3dbd bfd7 913d 9838 0c3c
000003d0: 982f 3dbc c64b 053d 380c efbc d452 873c
000003e0: 3dbf c43d a482 e63c 6a83 c4bd 14d0 07bd
000003f0: 5425 9abc c3ce 7bbd 824b 083d 93bc afbd
-0.07383485 -0.014673792 0.036023162 -0.08303958 -0.08282862 0.023405217 -0.031476796 0.054894872
-0.024444498 0.04197108 0.0167007 -0.07209691 -0.02318684 0.09742368 -0.032104954 -0.0639772
-0.038683165 0.08452193 -0.09698667 -0.08590931 0.088378794 -0.07366254 -0.07573496 0.06302179
0.041068085 0.018614128 -0.050134826 7.9371035e-05 0.04457987 0.020792767 -0.049177673 0.072990425
0.009838462 -0.004384324 0.07624342 -0.023227274 0.031651877 0.09165921 0.08490794 0.016333178
0.038233377 0.08931402 0.010776952 0.08052411 -0.03645496 0.0014481992 -0.022219434 0.099140026
-0.07964597 0.028309904 -0.041012358 0.027388938 0.0256645 -0.07955338 -0.034179285 0.07779149
0.0467496 0.048307188 0.086601205 -0.06014165 0.094339676 0.0020326003 -0.03613572 0.04234422
0.08867312 0.033582367 0.06968046 -0.022503138 -0.013047442 -0.09034754 -0.02117987 0.010350004
0.018246546 0.044778593 -0.06648794 -0.0029646978 0.065008126 -0.081120774 -0.005549848 0.076750405
0.053429894 -0.078553244 0.059673674 -0.028248154 0.024827383 -0.08062812 0.09481519 0.0147385225
-0.09320768 0.0046107545 -0.061064184 -0.052106082 0.021341123 -0.025495544 -0.058499467 0.019318007
0.006029442 -0.043865588 -0.05210462 0.092740364 0.036297686 0.0238773 0.056809224 -0.098363936
-0.011352226 -0.08384667 -0.009970762 0.04699775 0.09815585 -0.02010119 0.033561103 0.079609014
-0.0064132586 0.07966607 0.046858795 -0.09240212 -0.07587352 0.034129523 0.09343081 -0.09130901
0.091304325 0.0062736124 0.047645725 -0.023241006 -0.016494647 -0.011400364 -0.055555176 0.06467592
-0.040854122 0.058406614 -0.032901384 -0.049011767 0.011854388 0.031467266 -0.091453575 -0.016312972
0.06473797 -0.07717794 0.03245222 0.03900499 -0.03052406 0.07997573 0.09985665 0.032606132
0.01829721 0.016532227 0.04792387 -0.08013884 0.07834766 -0.08174497 -0.011426449 -0.087145105
-0.07890992 0.043118708 0.005617045 0.08681897 -0.0023419112 0.046956293 0.017451897 -0.017313443
-0.08732255 -0.036499277 -0.07319812 -0.013610937 0.012006283 -0.028956369 -0.09999754 0.0040186197
0.029464029 0.010816574 0.08051022 0.0784091 0.081304885 -0.09044834 -0.052063134 0.07899959
-0.047314156 -0.0498871 -0.03566654 -0.08877479 0.07628644 0.035308786 -0.01783017 0.053516097
0.07998014 0.0914307 0.017029896 -0.044773735 0.060710855 0.061513074 0.027764328 -0.03247857
-0.06171025 -0.067411676 0.09402899 0.028516717 0.05123616 0.097201146 -0.0041406974 -0.061863672
-0.031994127 0.07574048 0.08541668 0.050202973 0.09011371 0.04764145 0.08719566 0.044088386
-0.09323575 0.030623086 -0.084118284 -0.013927087 0.092083685 -0.042888273 0.023400724 0.049749203
-0.05328331 -0.040146362 -0.098072246 0.02600146 -0.08373674 0.09401288 0.07521059 -0.05545565
0.006910585 -0.08563333 0.06698204 0.088024564 -0.013154067 -0.032970987 0.013841189 -0.0139516145
-0.040826358 0.07409956 -0.018269345 0.06285823 0.0063912496 -0.07114258 -0.03649591 0.024799064
-0.028059483 -0.046218336 0.071212284 0.008558415 -0.011546992 0.032542966 -0.029180631 0.016518988
0.09606788 0.028138466 -0.09595378 -0.033157423 -0.018816628 -0.06147648 0.033275135 -0.085808896
